src/continuous/td3_critic1.pth (torch, 278128 bytes, 5 tensors)

fc1.weight f4 [256, 10]
00000000: 1ea2 80be 3144 b83e e2cd 95bd feac 9fbd
00000010: d90a 0bbf c518 33bf 2a6d 2c3e 3fb7 28bf
00000020: a976 23bd 0584 c03c c5a8 9e3e 4ea2 8fbe
00000030: b87c 7a3e 5af6 78be 31ea 923e 7aa5 053f
00000040: d658 8abe be55 573d bdfb bebc a3fb ae3b
00000050: f0fb 6f3e 1eed 8e3e f4a3 c03d 885d f83e
00000060: 70aa 51be ea79 65bf 18e4 07bc 8bc4 b03d
00000070: 4608 9abd a0ff 4fbe 45a6 28bf ee04 d5bf
00000080: 867d 783f 2bf9 6cbe 8e53 9fbd d2e3 e8bd
00000090: 5902 db3e de0c 80be 28e3 e63d a271 cf3d
000000a0: 8e22 a03e 41ba e13e 5f57 8dbe ca4b 2fbe
000000b0: 9a94 fd3e 41f8 c6bd 03ee 893e 3faa f8bd
000000c0: e7d5 823e 1e9b 333e 9147 0b3f 58f6 bf3e
000000d0: a943 70bd 0735 1fbf 7d5d 103e 818d c93e
000000e0: 9623 0dbe 05f8 bf3e 9b54 6ebc 8f8f 8c3d
000000f0: 3532 82bf 5551 ac3e 0fec 82bd 0050 843d
00000100: 562c ae3e 2cb9 5b3e 00cb 4a3e 8f3b 1b3e
00000110: ebb3 00bd 06fd b03a dc6c d33d 8f2e b33d
00000120: c4a4 fdbe 2c99 9f3e 2dd5 b6be 9606 f4be
00000130: c2ba f4be c288 183e 2e6e e0ba 7e1e a7bc
00000140: e5e8 8fbf cea0 32be a1c3 a1be 0058 f0bd
00000150: a4a9 023f 58a0 fdbd 0577 183f 4132 aabe
00000160: 0e60 ae3c 3db9 bc3d 6285 69be 74f5 31bb
00000170: b348 87bf 9a90 d63e e9cf d13d 9cd3 64be
00000180: e861 30bf 7f03 cbbd bc57 123c fe6a a93b
00000190: c7e1 633d 0203 d0be c7cd 993e a13c 45bf
000001a0: 3007 40bf 9b9e 52be 1773 993e b4de d73d
000001b0: 5bd2 65bd 5854 b73d c04b 573e c48e aabe
000001c0: eaa5 94be 380d 31bf 5ab7 70bd c863 0fbe
000001d0: 84b0 c8be 2f17 52bf 8c92 7ebd a374 46bd
000001e0: 970f 613e f185 84be 6ef5 f23e e1b9 593f
000001f0: 8f3a 553d cb98 36bf b792 25bf f42f 37be
00000200: d54a 0e3e 0533 593c 6706 b2bd fce6 a3be
00000210: 788e 0b3f 20c3 a93d 3478 f43e 0117 0dbc
00000220: 42f3 0abf 538d b03e a064 96be ca2e a73e
00000230: e2ef a1be b0bf 273e a63f 97bd cd57 62bf
00000240: a4aa 47be caa1 efbe 5263 e73e 56e3 d9be
00000250: 6eb4 2cbe 76ef 9c39 0456 2f3f b3d5 edbc
00000260: 1077 ecbd 493c ac3e 2713 573e 2e99 0bbf
00000270: 00d5 cfbe e5f9 f8be 695c 353d 20dc bc3c
00000280: 4f38 3e3f 1992 b1be 15d6 9ebe b968 47bf
00000290: e2d3 03be dc5a 2dbe 46b6 043f 3669 803c
000002a0: 04e7 0a3d 73d5 c73d a26a 93be 1d5d a63e
000002b0: 4e87 09be dc20 93be 09de 91be 7bc7 de3e
000002c0: c590 a4be 0ab8 d33c ae53 1b3e 71c3 02be
000002d0: 171b 173f 6ddf e93e 567f 283e ce87 51be
000002e0: f19a 96be 7cd9 283f be66 463d fd2e 083f
000002f0: 8399 e13d 440d 64bd ac3b 1ebf 976e 473d
00000300: 9014 3e3d d494 593f 5c1f eabe 775e 5a3e
00000310: 4bf5 803e db81 133f 409f 883e 33f9 0cbd
00000320: 2884 743f 6369 01bf 70f3 1e3f 0213 ee3d
00000330: f3ab d0be dc0a 233e f1d4 6e3e 7ed3 83bf
00000340: 3623 563c 4a74 153c 5236 bbbe 49c9 72bf
00000350: 8ad7 5f3e 0fcb 41bf d220 24bd 59c9 893e
00000360: 2356 9f3e 07ab 00bf b0fb 4cbd 1e12 cfbe
00000370: be8d bd3e cba1 a2be d4ce 093d b70d 99be
00000380: d82d f03e f39a 383f 8adc 203f 1e60 5a3c
00000390: cdbd 90bc ee2e 3bbc be42 103f 83d8 df3e
000003a0: 0777 3dbf 0b9d 7c3d dbff 7e3e ceb1 923e
000003b0: 6748 883e fa00 913d 6415 0f3e 4b5b e4bd
000003c0: 5fda 6c3c d86d 073e 8788 243d 7e77 6abe
000003d0: 0621 113f ff7b 843e c281 e7bb c576 a0bf
000003e0: e4fe 773d 7918 4abe dfcc 813e f177 ec3e
000003f0: 05b4 9fbe b3d5 4d3f 7ea9 30bf 33c2 47bf
-0.25123686 0.35989526 -0.0731466 -0.077966675 -0.5431343 -0.6995967 0.16838518 -0.6590461
-0.039908085 0.023500452 0.30988136 -0.28053516 0.24461639 -0.24312726 0.286943 0.5220562
-0.270209 0.052572004 -0.023313398 0.005340056 0.2343595 0.2791528 0.094062716 0.4850886
-0.20475173 -0.8963915 -0.008294128 0.086312376 -0.07521109 -0.20312357 -0.6587871 -1.664213
0.97066534 -0.23141925 -0.07779609 -0.11371578 0.4277523 -0.25009817 0.11273795 0.101290956
0.31276363 0.44087413 -0.2760572 -0.17118755 0.49527436 -0.097153194 0.269394 -0.12141847
0.2555382 0.17539641 0.54406077 0.37492633 -0.058658276 -0.6219029 0.14098163 0.3936577
-0.13783106 0.3749391 -0.014546539 0.06863319 -1.0171572 0.336558 -0.06392681 0.06460571
0.340182 0.21457356 0.19804001 0.15159439 -0.031421583 0.0013503141 0.10323498 0.08749115
-0.4953977 0.31171548 -0.35709515 -0.47661275 -0.47798735 0.14895919 -0.001712268 -0.020400282
-1.1242949 -0.17444155 -0.31594566 -0.11735535 0.510401 -0.12384099 0.5955661 -0.33241466
0.021286037 0.09215019 -0.22804788 -0.0027154358 -1.0569061 0.41907197 0.10244734 -0.22346348
-0.68899393 -0.09912776 0.00893205 0.005170225 0.05563524 -0.40627295 0.30039808 -0.7704564
-0.7501097 -0.20568316 0.2997062 0.10540524 -0.056108814 0.08951634 0.2102499 -0.33312047
-0.29032832 -0.69160795 -0.058768608 -0.14002907 -0.3919717 -0.82066625 -0.062151477 -0.048451077
0.21978603 -0.2588344 0.47452873 0.85049254 0.0520578 -0.71326894 -0.64676994 -0.17889386
0.13895734 0.013256793 -0.086926274 -0.32012165 0.54514265 0.0828917 0.47747958 -0.008611442
-0.5427743 0.34482822 -0.29373646 0.32652885 -0.3162833 0.16381717 -0.07385187 -0.88415223
-0.19498688 -0.46803123 0.45192963 -0.42556256 -0.16865703 0.0002993305 0.68490624 -0.029032564
-0.11546147 0.33639744 0.210034 -0.5453061 -0.40592194 -0.48628154 0.044277582 0.023054183
0.7430467 -0.34681776 -0.31022707 -0.7789417 -0.12873796 -0.16929191 0.5184063 0.015675168
0.03391172 0.09757509 -0.28792292 0.32492915 -0.13430521 -0.28736007 -0.28489712 0.43511567
-0.321417 0.025844593 0.1516864 -0.12769867 0.5902571 0.45678273 0.16454825 -0.20461962
-0.29415086 0.65956855 0.048437826 0.531967 0.11015608 -0.055676714 -0.618098 0.04868945
0.04640633 0.8499272 -0.4572705 0.21325098 0.25187144 0.5762002 0.26683998 -0.034417342
0.95514154 -0.5055143 0.62090206 0.11624719 -0.40756187 0.15922111 0.23323418 -1.0298917
0.013069918 0.009121964 -0.3656488 -0.94838387 0.21859565 -0.7570047 -0.040070362 0.2691143
0.31120405 -0.50260967 -0.050044715 -0.4044351 0.37022203 -0.31764063 0.033644512 -0.29893276
0.46909976 0.72111434 0.62836516 0.01332858 -0.017668629 -0.011424763 0.5635184 0.43719873
-0.74009746 0.061673205 0.24902289 0.2865128 0.2661774 0.070802644 0.13973004 -0.11150225
0.014456361 0.13225496 0.040169265 -0.22897145 0.56691015 0.25875852 -0.007065029 -1.2536246
0.060545817 -0.19735898 0.25351617 0.46185258 -0.31192032 0.80404204 -0.69008625 -0.780307

fc1.bias f4 [256]
00000000: c730 8dbf 7db1 be3e 8be8 113f d0b8 953e
00000010: a942 663f 7e8f 07be 733a 533d 20bb 843e
00000020: 6dc8 afbe 425b 8bbd 4dd1 4bbe 76da 2e3f
00000030: 5b01 fc3e 8dca 673f 2b8a ae3e 4caa debd
00000040: d0db 9f3d f3d2 c43e 9bfa 18bc ce45 d03e
00000050: 18e9 503f cef7 9b3b 7fd6 d6be d840 2e3f
00000060: 4572 e13e 4472 273f fa8b ae3e 81b2 b83e
00000070: 746e b53d b28e 3dbe 9f89 073e 7244 50be
00000080: 605b efbd cd79 493e 8e37 1ebf 094c cc3e
00000090: c839 c7bc 1bda 6c3f e15d 6dbf f6d4 553f
000000a0: c067 0f3f 174e 22bc e9d8 903e 7c33 6d3f
000000b0: 0105 f03d a234 803d c4db 063e 05ed 493f
000000c0: 1eba 47be e78e 733e e3f9 5fbf 10bd 033f
000000d0: bfb8 0a3f 87d1 4a3e 611e 4a3e 3190 88be
000000e0: 6180 b9be ac5d 983e 6dc8 233c 786d 5bbf
000000f0: 4c73 f0bd b2b3 e2bd 1051 0c3e f19b 963e
00000100: 288e b43e 7633 24bd 4948 123d 8f88 a1bd
00000110: 6dba 84bc ab7f 39be 27d2 eebd 6256 373e
00000120: 2c43 bf3d 8fd0 88be 3c5f f63e 04af 38bf
00000130: c3a1 163f ab60 4bbe 2c60 1f3f c4f9 a1be
00000140: 1fcf f03e 3702 92bd 9847 09be 6b42 3f3e
00000150: 144f 443e 82fe 41be bf5a 1a3f 6556 233e
00000160: 8419 a53e ee21 b0be 2851 82bf c030 003e
00000170: b517 23bd d0be 81be 037e 423f 58fb d33e
00000180: 2736 4dbe 6569 0dbf 4ffc f6be c97a bbbd
00000190: 74ec b9bd d7c0 9cbe d492 9f3e f08e f4bd
000001a0: a1b9 423e 438f 86be 9d8d c03e ab28 93be
000001b0: 9d90 7ebf 66fe 9ebe 2c34 3e3e 907c 123b
000001c0: c807 d13e 5b3f cbbe 27ab d83d daa1 69bf
000001d0: 6727 a63e f382 1fbf c573 6abe 9bbf 013f
000001e0: 6856 b83e 4fd8 473e 7f36 443f d82a 303f
000001f0: b62d 833e 5f2d 95be 8b3a 83be faa3 2f3f
00000200: 98bc f03e b710 513e fe1d 663e 389e 943d
00000210: 255e b1bc 31c3 d43d 56e8 c23e 3cce 543f
00000220: 0707 0b3f ab49 98be 69ec 2cbf e57b eb3e
00000230: b329 3d3e 3ea9 ab3e 8810 bc3e ca5b 803e
00000240: 54d5 003f 056f 503f 1450 df3e 2e4b 81be
00000250: bb56 9e3d 8e0b 243f 06bb 40be a936 903e
00000260: 2a7f 0a3e 973a a6bd 35a1 eabd c186 253f
00000270: 9d80 7d3e 1a09 1ebd 9b7e fabc 21c8 4c3e
00000280: f9cf 6a3c 9077 193d bdcd f63e 038d fd3c
00000290: 23f9 413f d40c b13e ce28 353e 5c4a 46be
000002a0: 5dbd 6f3e 3e27 ae3e f6c6 bf3c 7bfd 013f
000002b0: e92b e63e d1f9 193e 8f36 ec3e d949 46bf
000002c0: 7ec6 0e3f 85a5 823b b18b a93e 103f 263d
000002d0: 7e8c 9b3e a8b1 6a3e 1a97 09be 3190 ac3d
000002e0: e479 39bf ba31 003f 9b58 77bf f689 87be
000002f0: c585 d63e fd4d c13c 750d e63e e9c3 acbe
00000300: 30b4 adbe aa20 cfbe aa31 333c 0cc4 98bd
00000310: 5293 d63d fe5b 0abf 4056 543e dadf 013f
00000320: 9bff 3cbf 0e2d edbc 924f 56be 2aa2 62bd
00000330: f98c aa3d 8b1f 2e3f 8581 5bbe 782f 94bd
00000340: dc24 3bbe ac0d 023e 08c4 8fbe 1106 11bf
00000350: 45c5 083f eb4b 6dbe 5e36 abbc a707 2a3e
00000360: dadf 483f fa43 ba3e 1b88 913e 48d9 863e
00000370: 48ad f33e 171b 3ebf 219b 9f3e b20d f6bd
00000380: 2a77 b9bd b54f 223e 8778 e4bd 5630 dd3d
00000390: 730e 843d fc92 463f f17a 123f fc27 3c3f
000003a0: f487 b43e 170f ce3e 96e9 c1bc 8aac a83e
000003b0: 6de5 ba3e fab1 683d 28db e5be 71b7 0d3f
000003c0: 6cc4 71bd 58e8 d3be b146 883e b1f7 86be
000003d0: 4e89 4a3f 7861 833e 827a 39be 6163 383c
000003e0: fa27 89bf 20bd d83e 0611 f1be 08aa cbbe
000003f0: b95f 3a3d 1ecf d2be a473 1cbd dcea ec3e
-1.1030511 0.37244788 0.5699546 0.29242563 0.89945465 -0.13238332 0.051569413 0.25924015
-0.343326 -0.068045154 -0.1990406 0.68302095 0.49219784 0.9054344 0.3408979 -0.10872325
0.07805598 0.3844219 -0.009337093 0.40678257 0.8160567 0.004759765 -0.41960523 0.68067694
0.44032493 0.6540873 0.3409117 0.36073688 0.08858958 -0.18511465 0.13236092 -0.2033861
-0.1168735 0.1967537 -0.6180352 0.3990176 -0.024319544 0.925203 -0.9272137 0.8352808
0.56017685 -0.009906313 0.2829049 0.92656684 0.117197044 0.06260039 0.13169771 0.7887729
-0.19504592 0.23784982 -0.8749067 0.5146036 0.5418815 0.19806491 0.19738151 -0.2667251
-0.36230758 0.29758966 0.009996516 -0.8571391 -0.11740741 -0.110694304 0.13702798 0.2941585
0.35264707 -0.04008814 0.035713468 -0.078873746 -0.016202176 -0.18115108 -0.11661177 0.17904046
0.09338984 -0.26721618 0.48119533 -0.7214205 0.5884058 -0.19861095 0.6225612 -0.3163587
0.4703302 -0.07129329 -0.13406217 0.1867768 0.19170791 -0.18944743 0.6029472 0.15950926
0.3224603 -0.34400886 -1.0181017 0.12518597 -0.03981753 -0.2534089 0.7597353 0.41402698
-0.20040189 -0.55238944 -0.4823937 -0.09154279 -0.09078303 -0.30615875 0.31166708 -0.11941326
0.19016124 -0.26281175 0.37608042 -0.28741965 -0.9943941 -0.31053466 0.1857459 0.0022352077
0.4082625 -0.39696774 0.1057952 -0.9126259 0.32451937 -0.6230919 -0.22895725 0.5068299
0.36003423 0.19516109 0.76645654 0.68815374 0.25620812 -0.29136178 -0.25630602 0.68609583
0.47018886 0.20416532 0.22472379 0.0725674 -0.021651337 0.10388792 0.38067883 0.8312719
0.543076 -0.29743704 -0.67548233 0.45992962 0.18472938 0.3352756 0.36731362 0.2507003
0.5032551 0.814194 0.43615782 -0.2525267 0.07731386 0.6408013 -0.18821344 0.28166702
0.13525072 -0.08116644 -0.11456529 0.64658743 0.24756093 -0.0385829 -0.030577948 0.19998218
0.014331811 0.03746754 0.4820384 0.030951029 0.7577078 0.345801 0.17691347 -0.19364303
0.2341208 0.34014314 0.023410302 0.50777406 0.44955376 0.15036704 0.46135375 -0.7745643
0.55771625 0.0039870166 0.3311439 0.040587485 0.30380625 0.22919333 -0.13436547 0.0842594
-0.72451615 0.50075877 -0.96619576 -0.26472443 0.41898933 0.023596758 0.44932142 -0.33743218
-0.33926535 -0.40454608 0.010937134 -0.07459268 0.10477318 -0.5404662 0.20736027 0.50732195
-0.73827523 -0.028952148 -0.20928791 -0.055330433 0.0832767 0.6801688 -0.21436127 -0.072356164
-0.1827578 0.12700528 -0.28079247 -0.5664988 0.5342601 -0.23173492 -0.020899948 0.16604482
0.7846657 0.36379987 0.28424153 0.26337647 0.4759314 -0.74260086 0.3117304 -0.12014331
-0.09055932 0.15850718 -0.11155801 0.10800235 0.064480685 0.7756803 0.57218844 0.7349851
0.35259974 0.40245888 -0.023670953 0.32944137 0.36503163 0.056810357 -0.44893765 0.55358034
-0.059025213 -0.41388202 0.26616433 -0.2636085 0.7911576 0.256603 -0.1811314 0.0112541625
-1.0715325 0.4233179 -0.470833 -0.3977816 0.045501444 -0.41173643 -0.03819622 0.46272933

fc2.weight f4 [256, 256]
00000000: 348f da3e bf86 1b3e 15a3 c8bb 186a ae3e
00000010: fd7d 343e 7350 26be 8275 b43e 824a 8d3d
00000020: 0c3c a3be f18a b53c 4943 8e3e 55e8 df3e
00000030: 2244 d1bd 5800 403e de36 db3d 8b4b f8be
00000040: e66d c23d 8d48 16be 6c37 4cbe 9950 3abe
00000050: e402 e53d fb74 02bd f4a9 73bd c7ce 353e
00000060: a518 9cbe c380 7fbe 031b e93e 72d6 84bc
00000070: b3d2 6cbe d778 06bf 01c8 3e3e 7b19 963e
00000080: a4c0 98be c2c5 243e 71c1 233f 8ceb 773c
00000090: 81eb 3d3d cdaf 953e 1b18 1cbf 08f2 1b3d
000000a0: 1d9d c23d 827d e9be 45f4 973e d46c 3d3e
000000b0: 6191 88be 565f 72bf 47da 11be 17bc 403e
000000c0: 15fe 2d3e 3eb0 ffbe 0633 a9be d4a3 ef3d
000000d0: 7e4c ba3d 275d 49bd d819 a33d 75be 6cbe
000000e0: 33ec 60be bbb5 a1be df26 883e e141 c73e
000000f0: 9291 8b3e fb0c 033e 4910 69bb 8ead eabd
00000100: 483f e5bd da77 8dbe 0784 f03e 6025 f83e
00000110: a9bd 5cbe 516f 853e 30cc 7a3e 35d8 e8bd
00000120: 85e4 03be 1c2d 6b3b afe6 c13d fbbc 0e3e
00000130: 6319 c43e e878 9dbe d8f5 d1bd 7df6 17bf
00000140: a109 653e e6cc 403f 0b11 183e 53d1 093e
00000150: 1e61 473d 679f 813e f347 eebd 0e9f 8b3e
00000160: 33bc c33e fec7 01bd 04f1 4840 a5b8 bebe
00000170: ef01 223f 6f42 e43e b4af 533e 2608 943e
00000180: ba6c f2be 946d 483f 92a2 623d ae5d a73e
00000190: 06b3 28bd 9be7 b33d e156 3e3b 0c8a c2be
000001a0: a68e 2abe 4bef f13d 29c1 8c3e 928d 013d
000001b0: 212a a03e 6e76 443e 5647 2b3e 70c8 c7be
000001c0: 0fb3 933e 6e56 b63e e445 dfbb 32ff 293e
000001d0: 1da5 f23e 6b56 63be 7b94 2a3d 8c9e d63d
000001e0: 3548 edbe 207c d6bd f3d7 883d 8075 493e
000001f0: e1d8 8cbc ccc0 c83e 03f2 b63d a1b2 c0bd
00000200: a259 623e 7bcf 8b3e ab29 bdbd 20d0 033d
00000210: 6fb8 36be ce86 4f3e f313 af3e 8a02 a33e
00000220: 3bf8 963e 41a8 64be 33b6 04c0 6e29 9b3e
00000230: eeb4 9c3c 42b6 6f3d abff 873e f2cd 863e
00000240: f4b7 b23e 03d3 c03d 9d5d 3dbe 62d9 b9bc
00000250: f13e a23e c103 b43d 93fc a33d 785e c13e
00000260: 0b08 fabd 1970 9ebe 2ff4 663c 6740 9b3e
00000270: d4af 3c3d 8057 25be 574a 6ebd 7036 153e
00000280: 1c6e adbc 5bd5 453e 5d6c 0cbe 1967 9ebe
00000290: a570 ba3e 8e4e 9e3d e690 39be 242e ab3d
000002a0: 2668 9a3e c5bd 97bd 7ab6 5dbe 35f9 233e
000002b0: 1688 1d3e d6cc 2abf 2210 8e3e b90e 3e3e
000002c0: f456 833e 7b00 e7bd 48d6 ce3d 655e 9abc
000002d0: 0d37 6a3d 36e3 b8be c9b4 2b3f 445b d5be
000002e0: 5345 ea3d f0ea ab3e 50ca b0be 43f2 2dbf
000002f0: 1a7a a6be 8ce9 103e a9a3 dd3d 1a0f 56be
00000300: 47ea 2e3f 2332 57bf 4032 033e 5a99 f53b
00000310: faf9 a4be 03f1 a23e b2e5 023d a8df 20be
00000320: 4590 b93d c547 463f 1bc2 cabe e050 84be
00000330: dc17 283e 65bb 623e df57 1a3e 802c d4bd
00000340: 3938 7d3e dff7 ab3e 1db4 4a3e a0c9 04bd
00000350: f39b d13e 1e7b 29bf 6365 d23e 367b a63e
00000360: db85 05bc 6ab0 2dbc e6b8 a4bd 3445 84bc
00000370: 4ab1 7a3e 8787 b5be 8873 2f3e 2686 48bd
00000380: 2d30 55bf 4a78 22be effb bf3e 7710 2c3f
00000390: f9ea 02bf 367a 413e 0c3e 61bd 46a2 a0ba
000003a0: feb6 30be 4597 7bbf b09f 913e 33d4 bbbd
000003b0: 5ac0 193d 5923 b63c 333a ae3e 38f0 c53e
000003c0: 6e19 cebd 24d6 5e3e 9d7e bb3d 3862 6e3e
000003d0: 2331 033e ddaa 70be f61a 58be ddeb 8cbe
000003e0: 64c4 3dbe 1dd7 3b3d 6421 2bbf 1140 343e
000003f0: cf03 ddbe 547f 523e 8f94 c3bc 4c86 803e
0.4268738 0.1518812 -0.0061229565 0.34065318 0.17626186 -0.16241626 0.352459 0.06898977
-0.3188175 0.022160979 0.2778571 0.43731943 -0.102180734 0.18750131 0.107038245 -0.48495135
0.09493618 -0.14676113 -0.19943017 -0.18194808 0.11182192 -0.031849843 -0.05948825 0.1775466
-0.30487552 -0.24951462 0.4552842 -0.016215537 -0.2312725 -0.52528137 0.18630983 0.29316315
-0.29834473 0.16091064 0.63967043 0.015131842 0.046367172 0.29235688 -0.6097428 0.038072616
0.09502623 -0.45603567 0.2967855 0.18498546 -0.26673415 -0.9467672 -0.14243422 0.1882175
0.16991456 -0.4993915 -0.3304674 0.117011696 0.09096621 -0.049161103 0.07963914 -0.23119529
-0.21965103 -0.31583962 0.26592156 0.3891745 0.272595 0.1279792 -0.0035562685 -0.11458884
-0.111937106 -0.27630502 0.4697573 0.48466015 -0.21556725 0.2606149 0.24491954 -0.11369363
-0.12880142 0.0035885042 0.094678275 0.13939278 0.3830062 -0.30756307 -0.10251969 -0.59360486
0.22366954 0.7531265 0.14850251 0.13458757 0.048676603 0.25316927 -0.11634817 0.27269787
0.38229522 -0.031684868 3.1397104 -0.37250248 0.632842 0.44581935 0.20672494 0.28912467
-0.47348577 0.782922 0.05533082 0.3268866 -0.041186355 0.087844096 0.0029043483 -0.37995946
-0.16655979 0.1181322 0.2749112 0.031629153 0.31282142 0.19185802 0.16726431 -0.3902011
0.28847548 0.35612816 -0.0068137515 0.16601256 0.47391596 -0.22200935 0.04164551 0.10479459
-0.46344152 -0.10472894 0.06681814 0.19673729 -0.01719326 0.39209592 0.08932879 -0.09409071
0.22104505 0.27306733 -0.09236463 0.032180905 -0.17843793 0.20266268 0.34194908 0.31837875
0.2948626 -0.22329809 -2.0736206 0.30305046 0.019129243 0.058523424 0.26562247 0.26329
0.3490597 0.09415247 -0.18492742 -0.022686664 0.31688645 0.087897785 0.08007159 0.37767386
-0.12208565 -0.309449 0.014096304 0.30322573 0.04606612 -0.1614666 -0.058176365 0.14571548
-0.021170668 0.1931967 -0.13713212 -0.30938032 0.36414066 0.07729827 -0.1812168 0.0835841
0.30157584 -0.074092425 -0.2165164 0.16013034 0.15383944 -0.66718805 0.27746683 0.18560304
0.25652277 -0.112793885 0.10099465 -0.018843839 0.057181407 -0.36110848 0.6707273 -0.41671193
0.11439004 0.3357768 -0.34529352 -0.6794779 -0.3251503 0.14151591 0.10822231 -0.20904198
0.6832623 -0.8406088 0.12812138 0.0074950876 -0.32221967 0.31824502 0.031957336 -0.15710318
0.0906072 0.7745326 -0.39601216 -0.25842953 0.16415352 0.22141798 0.15072583 -0.1036005
0.24728478 0.33587548 0.1979527 -0.032418847 0.40939292 -0.66203487 0.41092977 0.32515877
-0.008149589 -0.010601142 -0.08043079 -0.01614628 0.24481693 -0.35454962 0.17133915 -0.04895606
-0.83276635 -0.15866199 0.37496898 0.67212623 -0.5113979 0.18894276 -0.054990813 -0.0012255393
-0.17257306 -0.98277694 0.28442144 -0.09171333 0.037536956 0.022233652 0.34028777 0.38659835
-0.10063444 0.21761376 0.09155009 0.23279655 0.12811713 -0.23502679 -0.21104035 -0.275237
-0.18531948 0.045859445 -0.66847825 0.17602564 -0.43166968 0.20556384 -0.02387455 0.2510246

fc2.bias f4 [256]
00000000: 050e c93d d190 543d 76e0 2e3d d82a 283c
00000010: bb92 88bb bf53 bc3d 7af7 33bd df56 063e
00000020: 11bc 363b 457e 9c3d 0ff6 673e 49cc 103b
00000030: b2e1 32bd a76e 303e 68bb 483c 4468 883d
00000040: 5eb5 263d 38df 81bd 7892 4b3e c4de f63d
00000050: 09d4 4a3d 69d4 903c 5821 c93c 4221 e53c
00000060: d464 923d 62d1 3f3d 5a8e b63c ae01 f33d
00000070: 5be9 d43d 8f35 913b 6a9e 78be 226d e7bd
00000080: 2c4b 87bd e77e bd3d 32a7 53ba 7365 d93d
00000090: 16fb a73d 170f bc3d 167b 9c3d 9f48 4c3e
000000a0: 1e68 26be 1d32 d0bc 2f1e 093e a300 7e3c
000000b0: 3795 973d 2206 33bc 0a37 7ebc d3c7 983d
000000c0: ca73 903d 6545 0f3d 589d 863d fd10 44bf
000000d0: 5fdd 2a3d 1eb8 a63c e147 9abd e771 93bc
000000e0: e524 e83e 1eee 9e3e 7d51 e83d d69f 063e
000000f0: a947 8dbc 6603 083e 9bfa 943c 3504 ec3d
00000100: 7646 063e 798e cc3b ca08 4f3d 70f8 463e
00000110: 5d8b 883d 78c4 f2bc 5f1e bebb 9c55 033e
00000120: 4136 25bd 7988 a03e fdae b7bc abad 813b
00000130: 803a b93d 4f59 b23d e26d e13d b031 47bc
00000140: b5b7 fa3e fbcf 9f3d 6ebf e239 2808 6fbc
00000150: 2aa4 a73e 1c6a 333e d1ac 963b f18d d53e
00000160: ae40 113d 2c6c d63c 3ff1 10bd b03b 483e
00000170: 7c0d b53d 9ddd 163e f0d6 6bbd f941 b03a
00000180: 1dc0 ac3d 9218 c73d f504 143f 2b61 973d
00000190: c45e 50bd b90d e83d b937 10be 5fb8 013e
000001a0: d499 9b3d 8ab9 103d d0be b0bc 3e6e 38bf
000001b0: bdef 303e 2a2e a33d 48bb fe3d b3c8 da3d
000001c0: 63b4 d93b 9c8d b83d 1981 453d 8e16 8abd
000001d0: c07b 963d 72c5 a63c 0300 853b b9ff db3d
000001e0: e601 38bd 5020 f03c 16fc db3d adc2 72bd
000001f0: 78ec e83e 5f78 5e3d 2d48 083a c57f fb3d
00000200: 35c3 f23d 9572 003e 32b3 b33d 2e21 6d3d
00000210: d0e5 d23d 6747 b33c 5b47 353d 9f6d 05bd
00000220: 15a9 e23d be80 34bd 5032 383d f608 ee3d
00000230: e567 853e f244 ae3b ea0f 063e e97d 92bd
00000240: ef86 e53c 98ef 503d ad5f 6ebc 2743 3a3d
00000250: 7a35 913d 0ee2 553d 5de1 c93d 43aa 7c3e
00000260: 2620 33bd 646b 3c3d f0bb b53d 4055 f73d
00000270: 2912 0c3f 07d7 7a3c a167 ab3d 5f00 b63e
00000280: 620a ad3d cbe4 983d 006b 783d 0ca6 ed3d
00000290: 9b75 363d a0ce 8cbd b4e4 f23d ed2d c53d
000002a0: 5e29 9f3c d00e 763d 2b16 cf3a eab1 ec3c
000002b0: 3aa1 a43e a00f eb3d a5e3 143d 219b 3e3d
000002c0: 9ee5 3f3e 586b a93d 40a8 a23d bed5 a2bd
000002d0: e93c 23bc a350 59bd 0b5b ed3d 92e6 7b3e
000002e0: ef06 8bbd d2c3 2b3d 3b7d d43d 7564 c53d
000002f0: 9723 483e dd90 253d fdcd cb3d c6ec 033e
00000300: bee0 ccbd 0e7b 023e f007 b13d ab65 0b3d
00000310: ea8c 683c dd73 8a3e 8567 26bd 4ba6 003d
00000320: e796 993c 40ff 78be 7cc9 283d 4482 293d
00000330: cd1f 303d f770 833d ad56 c4bc 2e9e ad3c
00000340: 107c 793e 7a32 8d3d d7b7 413e f739 b13c
00000350: 3f78 083d 9650 0b3f 62a2 81bd b08c 32bd
00000360: d833 f93e e2d0 863d 958a 37bd 9741 c33d
00000370: d84e 23bc 670a 87bd 42f9 f53d ea2b 7a3d
00000380: 358c 023e 44be e33d 75ab d93d 48a3 4e3e
00000390: 140d a13d c0c8 dcbc 8044 e13d 9c51 3ebc
000003a0: 33c2 653d 1d01 84bd f82d 233d 093d 593d
000003b0: 85c9 ec3c 2633 bf3d 2dad cdbb 548f 063d
000003c0: f335 083e 7028 5a3d 1132 a53b 7c35 7dbd
000003d0: 2a09 a0bd 03a9 9b3d 03cd 353d 37ea 58bd
000003e0: 4fe8 193f 44ee 0d3f e27a 27bc 6cac 583d
000003f0: 381f a93c ecdc a93d c90f c83c 8ac5 073f
0.09817127 0.05189592 0.04269453 0.010264121 -0.0041678823 0.09195661 -0.043937184 0.13119076
0.0027883092 0.076412715 0.22652458 0.002209442 -0.04367227 0.1722971 0.012251712 0.06660512
0.04070031 -0.06341404 0.19880092 0.12054208 0.04951862 0.01767941 0.024552032 0.02796996
0.07148138 0.046830542 0.022284675 0.11865555 0.103960715 0.0044314335 -0.2427918 -0.11300112
-0.06606135 0.0925272 -0.0008073925 0.10615053 0.08202188 0.09182566 0.07640664 0.19949578
-0.16250655 -0.02541452 0.1339042 0.0155030815 0.07401507 -0.010926755 -0.015516052 0.074599884
0.07053335 0.03497829 0.0657298 -0.7658842 0.041715022 0.020351466 -0.07533241 -0.017998649
0.45340648 0.31041044 0.11343668 0.1314691 -0.017246084 0.13282546 0.018185904 0.1152424
0.13112816 0.00624257 0.05054549 0.19430709 0.066672064 -0.0296347 -0.0058019604 0.12825626
-0.040334944 0.3135412 -0.022422308 0.0039574704 0.09044361 0.087084405 0.110072866 -0.0121578425
0.48968282 0.07803341 0.00043248705 -0.014589347 0.32742435 0.17520946 0.004598238 0.41709855
0.035462074 0.026174627 -0.03538632 0.19554019 0.088404626 0.14732976 -0.057578027 0.0013447396
0.0843508 0.09721483 0.57820064 0.0739158 -0.050871626 0.113307424 -0.14083757 0.12667988
0.075977 0.035333194 -0.021575361 -0.72043216 0.17278953 0.079677895 0.12438065 0.106828116
0.006643818 0.09011385 0.04821882 -0.06742583 0.07347822 0.020357821 0.0040588393 0.107421346
-0.044923685 0.029312283 0.10741441 -0.05926769 0.4549291 0.054314014 0.00051987433 0.122802295
0.11853639 0.1254371 0.08774413 0.05789297 0.102977395 0.021884633 0.044257503 -0.032575246
0.11067406 -0.04406809 0.044969857 0.11622803 0.26055828 0.0053182775 0.13092008 -0.07152922
0.028018443 0.051009744 -0.014549178 0.045474198 0.07090278 0.052217536 0.09857438 0.24674325
-0.04373183 0.046000853 0.08873737 0.12076807 0.5471521 0.015310056 0.08369375 0.35547158
0.08449246 0.07465514 0.06064892 0.116039366 0.04454575 -0.06875348 0.11860028 0.096279
0.019428905 0.06007272 0.0015799453 0.02889343 0.32154256 0.114775896 0.03634991 0.04653466
0.18739936 0.08272427 0.079422474 -0.07950924 -0.009963253 -0.053055417 0.11589631 0.24599674
-0.06788432 0.041934796 0.10375448 0.09638301 0.19544826 0.040421356 0.099513985 0.1288329
-0.10003804 0.12742254 0.08644092 0.034032505 0.014193753 0.27041522 -0.040626068 0.03140859
0.018748714 -0.2431612 0.041207775 0.041383997 0.042999078 0.06418031 -0.023967111 0.02119359
0.24363732 0.06894393 0.18917786 0.021634085 0.0333178 0.5441984 -0.063298 -0.0435912
0.48672366 0.0658281 -0.044809896 0.09533995 -0.009967528 -0.06593781 0.12010433 0.061077036
0.12748797 0.11120275 0.10628406 0.20179474 0.078638226 -0.026951194 0.109993935 -0.011616137
0.056093406 -0.06445525 0.03983876 0.053036723 0.028904686 0.09335928 -0.0062767477 0.032851532
0.1330183 0.05326122 0.005041369 -0.061818585 -0.07814248 0.07600596 0.044384968 -0.05295774
0.601201 0.5544169 -0.010222169 0.05289881 0.02064477 0.08294091 0.02442159 0.53035796

fc3.weight f4 [1, 256]
00000000: 7b06 3bbf fd37 8fbe c11b b1be 1384 abbe
00000010: ae41 11bf 6d39 2cbf fbc4 0440 f5a9 a2be
00000020: 10fd 5a3d 82bb 9bbe f60c 523f 42fc fe3c
00000030: 0a72 ce3f 3fbe aa3f cb0d a8be afb8 aabe
00000040: 0019 96be 86e7 093d 3b33 ebbf 9463 4640
00000050: f419 a4be 4353 adbe 9361 90be 8724 82bf
00000060: 5f86 b0be 66cd 6d3f 0f8f b0be 4604 a3be
00000070: 1c62 87be abc3 0340 2957 a53f fbd5 1440
00000080: bde4 1940 3121 92be f299 96be 4ea5 6e3f
00000090: 8df6 a9be bbc1 99be 1b8f 5ebf 0604 5c3f
000000a0: 691c cc3f d51a d13f 7b7a 0640 0582 bf3f
000000b0: e708 18bf e9ec 3a3d ca90 ea3b a946 b8be
000000c0: a34c a8be 1110 94be 0766 9dbe 7f45 f33f
000000d0: b2cb a4be c038 2f3b 99da f13f 1096 f4b9
000000e0: ccc7 903f 0f7f 1e40 9553 97be 8237 a6be
000000f0: f8e5 22bc efe9 a9be 30c7 aabe 41f3 a1be
00000100: 0080 a2be 2428 383d f967 a2be 92a7 963f
00000110: d310 abbe efdf c03f 65fd 69bd 6215 a9be
00000120: 7a94 e63c 40af 883f 6fee 30bd 9c7a 8cbe
00000130: b73d 913f 1de4 0040 a3bc 99be 9cce 9d3f
00000140: c43c c73f a2d5 a5be 2eae ba3b 6524 c73f
00000150: fdc7 b03f 67ee 353f c9e6 d83f ad50 dd3f
00000160: 92dc 683f 6581 acbe 8ddf 84bf 3603 473f
00000170: 37e2 a1be 1964 6d3f 0ee2 b93c 50d8 f5be
00000180: 05dd b13f e212 9dbe 8e6a b63f c918 aebe
00000190: f316 36bd d710 a5be 7772 e23f ce27 1b40
000001a0: 1ac0 0bc0 be9e aa3f fd82 d43c 74fe 1640
000001b0: bba2 1dc0 8737 96be d291 a7be 49e0 97be
000001c0: 54a9 9b3c 2b2e abbe 55ba b6be 034e da3f
000001d0: 5372 adbe 6ba5 9abe 5bb9 35bf a23f a4be
000001e0: 37e4 1f3d 7515 66bf c6c1 a9be 212e b73c
000001f0: 1f2d 923f ab3a b5be 6c8c e63f 76f0 aebe
00000200: d468 a0be ac82 953f bf8d 97be 3fea d53f
00000210: 49ec 9fbe 53ef 303d d77a 8fbe b02c b13a
00000220: cf24 acbe 22ca 36bd 3dbe 94be 81b3 80be
00000230: 4a0b e23f bb36 87bf 1d3d bdbf a464 0c3d
00000240: ed57 9ebe ec1b 93be 7851 9a3c 3bf4 abbe
00000250: 92c8 a8be 4862 a9be a4c7 93be 3f4d b63f
00000260: 9969 d93c 4d20 8b3f 9ea8 abbe f55c a4be
00000270: 13e2 ac3f bac4 8fbe a428 8abe b305 a23f
00000280: 7cd6 89be 4b3e f43f 67a8 f53f 58df a8be
00000290: 5bd4 a4be 2683 723a c04d 85be 0f1d 99be
000002a0: 1785 b7be 1271 1340 9aaf cf3c 4187 883f
000002b0: 7bdf 7c3f 0861 90be 59d9 91be 6d14 9dbe
000002c0: c3a8 563f a28e ea3f 0364 4cbf 6e7d 1f3c
000002d0: 4620 523d cdaf 2d3d 0814 99be f0c4 8040
000002e0: 2cfc cb3b 82c3 a9be c61e b9be a703 a7be
000002f0: fac5 d73f 67a9 05ba c251 0c40 bf19 b3be
00000300: 195d d43f d23d afbe ba01 9ebe db5e acbe
00000310: 182b adbe 6e78 923f 136b 023d 8e03 2c3d
00000320: 0b31 a9be 0773 1bc0 6568 57bf 9cdf e13f
00000330: 3c3f a9be fb09 bcbe 83b0 5a3c 1f19 9abe
00000340: 185e 7d3f bda5 9ebe 3dd3 fc3f 45a4 a0bc
00000350: 2188 9bbe de59 dd3f e23f a13c 5828 863c
00000360: 6cfe b13f f72c a6be 7c7d 2140 3c01 94be
00000370: 3b81 353d 0595 5d3c a166 aebe bfec ed3f
00000380: c373 ce3f cb25 a4be 416a 86c0 eef9 be3f
00000390: c581 acbe a8ee 8ebb 97ed 1640 dfe0 873a
000003a0: fd35 abbe 9c27 233d 9578 e53c c8ef a6be
000003b0: e7f5 0fbf 2c2f adbe b469 b33c b841 acbe
000003c0: d0d5 b2be 56e0 5f3f 3517 a1be 57af cf3f
000003d0: b9e5 8c3b 4b03 bdbe b527 a7be 3863 3640
000003e0: 3f36 d73f 6f74 c23f 8902 a7bc f9dd c83f
000003f0: 7eb9 a1be 7d12 a9be 93b1 8abe 3bb9 a53f
-0.73056763 -0.27972403 -0.34591487 -0.33499202 -0.56740844 -0.67275125 2.0745227 -0.31770292
0.053463995 -0.30416495 0.82051027 0.031126145 1.6128552 1.3339309 -0.32823023 -0.33344027
-0.29315948 0.033668064 -1.8375009 3.0998278 -0.3205105 -0.33852586 -0.28199443 -1.0167397
-0.34477517 0.9289154 -0.34484145 -0.31839198 -0.2644204 2.0588176 1.2917224 2.3255603
2.404586 -0.28540948 -0.29414326 0.93220985 -0.33195916 -0.30030617 -0.8693711 0.8594364
1.594617 1.6336313 2.1012256 1.4961554 -0.59388584 0.04563609 0.0071583735 -0.3599141
-0.3287097 -0.28918508 -0.30741903 1.9005584 -0.32186657 0.0026736706 1.8894836 -0.00046651112
1.1310973 2.476505 -0.29555956 -0.32464224 -0.009942524 -0.3318629 -0.33355093 -0.316309
-0.3173828 0.044960156 -0.3171995 1.1769888 -0.33411273 1.5068339 -0.05712642 -0.33024126
0.028146971 1.0678482 -0.043196138 -0.27437294 1.1346959 2.013923 -0.3002673 1.2328677
1.5565419 -0.3238955 0.0056970334 1.5557982 1.3811032 0.710669 1.694543 1.7290245
0.90961564 -0.3369247 -1.0380722 0.77739275 -0.316179 0.9273086 0.0226908 -0.48016596
1.3895575 -0.3067847 1.4251268 -0.34003285 -0.04445548 -0.3223941 1.7691182 2.4243045
-2.1836 1.3329694 0.025941366 2.3592806 -2.4630573 -0.2933924 -0.3272844 -0.29663303
0.01900164 -0.3343366 -0.35689035 1.7055057 -0.33876285 -0.3020433 -0.70985955 -0.32079798
0.039036002 -0.8987649 -0.3315565 0.022360863 1.142002 -0.35396323 1.8011603 -0.34167832
-0.31329978 1.1680503 -0.2960033 1.6712111 -0.3123496 0.043196987 -0.28023407 0.0013517346
-0.33621833 -0.044626363 -0.2905139 -0.2513695 1.7659695 -1.0563577 -1.4784275 0.034275666
-0.30926457 -0.2873224 0.018837675 -0.3358477 -0.32965523 -0.33082795 -0.2886325 1.4242324
0.02653961 1.0869232 -0.33527082 -0.3210217 1.3506492 -0.28079778 -0.2698413 1.2657989
-0.2692145 1.908151 1.9192017 -0.32982898 -0.32193264 0.000925111 -0.2603588 -0.29904982
-0.35843727 2.3037763 0.025352288 1.0666276 0.98778504 -0.2819903 -0.28486136 -0.30679646
0.8385126 1.8324778 -0.79840106 0.009734495 0.05130031 0.042403985 -0.29898095 4.02404
0.0062251296 -0.33156973 -0.3615629 -0.32619974 1.6857293 -0.000509879 2.19249 -0.3498058
1.6590911 -0.34226853 -0.30860692 -0.3366612 -0.3382194 1.1443002 0.031840395 0.041995578
-0.3304523 -2.4288957 -0.8414367 1.7646365 -0.33056056 -0.36726364 0.013347748 -0.3009729
0.989717 -0.30985823 1.9751965 -0.01960958 -0.30377296 1.729305 0.019683782 0.01637666
1.3905768 -0.3245618 2.523284 -0.28907192 0.044312697 0.013524299 -0.34062675 1.8587874
1.6129078 -0.32060084 -4.2004704 1.4920022 -0.33692756 -0.004361946 2.3582513 0.00103667
-0.33439627 0.039832696 0.0280116 -0.32604814 -0.5623459 -0.33825052 0.02190099 -0.3364389
-0.3492875 0.87451684 -0.31463018 1.6225384 0.004299846 -0.36916575 -0.32647482 2.8498058
1.681343 1.5191783 -0.020386951 1.5692741 -0.31586832 -0.33021918 -0.27088603 1.2947153
