src/continuous/td3_actor.pth (torch, 277084 bytes, 6 tensors)

fc1.weight f4 [256, 8]
0.35101217 -0.42280316 -0.83844614 0.7472219 0.34359732 -0.95432645 -0.32284 0.34672546
-0.5694464 -1.3525506 -0.19766012 -0.4589758 0.67699176 -0.46835038 0.21198262 -0.30818272
-0.50764316 -0.40535992 0.38171995 -0.05773403 0.28475848 -0.26835847 -0.024960086 -0.48732734
-0.11877171 0.41973692 -0.26325363 -0.05614897 -0.9888648 -0.3672289 0.75449383 -0.47738725
0.39452118 0.16191156 -1.1161853 0.7188071 -0.42840293 0.5252086 -0.81620353 0.37591618
0.24883458 -0.33088297 -0.40964723 -0.13071331 -0.6953429 -0.6772553 0.082443126 0.04525238
-0.8053645 0.28497103 -0.14777371 -0.5266905 -0.40784574 -0.5951213 -0.10557907 0.5471746
-0.4232539 -0.07278955 0.3646496 0.04704011 -0.17553757 1.0748256 0.06851461 -0.52932066
-0.7606225 0.20427734 -0.11567713 0.20760588 -0.57747704 0.28544828 -0.87477547 -0.9419023
1.092481 -0.04977341 0.24907118 0.18818232 0.2870831 0.12027074 -0.55829597 0.4311149
0.22461095 -1.5478922 0.253643 0.6411428 -0.90945303 -0.07639549 -0.3865356 0.15955532
-0.28642365 -0.47542128 -0.9979207 0.85403025 -0.94109315 0.38548332 -0.036618464 -0.0373361
-0.9265769 -0.0065199733 -0.216019 -0.20891927 0.04480442 -0.19074231 -0.13753918 0.70840114
0.57657224 -0.1651303 0.36005342 -0.5607131 0.2508675 -0.8071178 0.22565496 -0.032010417
-0.6266366 -0.5382548 0.21469297 0.14591995 0.5348143 0.3726735 0.5485513 -0.27798852
-0.20776615 0.026570447 -0.17732278 -0.2079994 0.15140657 0.33304802 -0.4034472 -0.070067406
-0.09600875 0.42037532 0.83594596 0.095312424 -1.4250736 -0.17767514 0.054414317 0.24576038
0.32316142 -0.5025576 -0.7174863 -0.54586005 -0.44155532 0.38493454 0.1457456 -0.27643418
-0.7384006 -0.032849092 0.64302933 0.44293165 0.011863502 -0.502248 0.3661606 -0.33448747
0.14396624 0.18573412 -0.8700063 0.773695 -0.020767888 -0.0933514 0.09984297 -0.20380941
0.877458 -0.17165413 0.3452114 -0.3534488 -0.9581262 0.6681494 0.04644595 0.44712985
-0.35163078 -1.1477929 -0.7655804 0.007953947 -0.09961935 0.068334565 0.14887531 -0.51054174
0.8617783 -0.2754207 0.5051584 1.1872839 -0.2602792 -0.10227346 0.02917066 -0.4970943
-1.1210799 -0.34596753 0.2686936 -0.69991994 -0.5972899 0.5099883 0.34188935 -0.45049775
0.6405759 0.24102305 0.25576785 -0.43292704 -0.5241329 -0.008843973 0.045669824 0.22196174
0.30915394 0.26304287 0.8843045 1.4823923 -0.23444709 -0.34717807 -0.21138869 -1.0636477
0.17624463 0.4268878 -0.57059675 0.19957739 -0.39365053 -0.39197198 -0.025804926 0.096753895
-0.08292048 0.5915078 -0.17429759 -0.37868792 -0.7784519 -0.24514483 0.10756735 0.29795614
0.41423088 -0.5341698 0.23500322 -0.08510562 -0.7740337 0.41395447 0.5552149 -0.24379314
-0.3052189 -0.30085504 0.81327033 0.013568059 -0.63614124 -0.10516471 -0.42569816 0.642208
0.214554 0.11559996 0.2189335 -0.011788983 -0.5328712 -0.7986053 -1.191404 -0.082858756
0.9777108 -0.03596863 0.2570404 -0.02417161 0.006625916 0.30380315 0.46802336 0.16885673
00000000: deb7 b33e a879 d8be 68a4 56bf ef49 3f3f
00000010: fdeb af3e bd4e 74bf 494b a5be 0086 b13e
00000020: 3dc7 11bf 6120 adbf 6a67 4abe e0fe eabe
00000030: 554f 2d3f 9fcb efbe f911 593e 20ca 9dbe
00000040: e7f4 01bf 568b cfbe cc70 c33e 857a 6cbd
00000050: ddcb 913e 4866 89be 1879 ccbc f882 f9be
00000060: 953e f3bd c2e7 d63e 2ec9 86be 76fc 65bd
00000070: 3e26 7dbf 6d05 bcbe 8226 413f 1a6c f4be
00000080: aefe c93e 25cc 253e 29df 8ebf be03 383f
00000090: a157 dbbe 1274 063f b7f2 50bf 1678 c03e
000000a0: 7ece 7e3e 7e69 a9be 48bd d1be b6d9 05be
000000b0: fe01 32bf 9a60 2dbf f1d7 a83d 8f5a 393d
000000c0: 5e2c 4ebf b9e7 913e fe51 17be 30d5 06bf
000000d0: 28d1 d0be df59 18bf d739 d8bd a213 0c3f
000000e0: bcb4 d8be b012 95bd 5ab3 ba3e 21ad 403d
000000f0: 1fc0 33be e393 893f 6351 8c3d 8f81 07bf
00000100: 28b8 42bf 142e 513e 22e8 ecbd a396 543e
00000110: 89d5 13bf 4726 923e 49f1 5fbf 8220 71bf
00000120: 6bd6 8b3f 34df 4bbd 840c 7f3e deb2 403e
00000130: 8efc 923e 8150 f63d 7cec 0ebf 18bb dc3e
00000140: 6a00 663e 5521 c6bf 7fdd 813e ef21 243f
00000150: ead1 68bf 3d75 9cbd ffe7 c5be 7862 233e
00000160: 1fa6 92be 6b6a f3be bb77 7fbf baa1 5a3f
00000170: 7beb 70bf 125e c53e 3efd 15bd bded 18bd
00000180: 2534 6dbf 80a5 d5bb 1634 5dbe efee 55be
00000190: d784 373d f451 43be 12d7 0cbe c759 353f
000001a0: 3d9a 133f eb17 29be ec58 b83e e58a 0fbf
000001b0: b471 803e 469f 4ebf 1812 673e 5b1d 03bd
000001c0: 426b 20bf 11cb 09bf 79d8 5b3e 0a6c 153e
000001d0: 97e9 083f 10cf be3e dc6d 0c3f 8354 8ebe
000001e0: a6c0 54be 44aa d93c 1a94 35be cbfd 54be
000001f0: 530a 1b3e 4585 aa3e a290 cebe 807f 8fbd
00000200: 3ca0 c4bd 6f3b d73e 8e00 563f 2933 c33d
00000210: d068 b6bf 79f0 35be 8ce1 5e3d 9ca8 7b3e
00000220: 6a75 a53e 9da7 00bf 2fad 37bf 7cbd 0bbf
00000230: 8a13 e2be 2416 c53e 563e 153e c888 8dbe
00000240: d207 3dbf c58c 06bd 929d 243f f0c7 e23e
00000250: 225f 423c 5393 00bf 6779 bb3e f141 abbe
00000260: e36b 133e 1631 3e3e bcb8 5ebf e010 463f
00000270: 6b21 aabc 052f bfbd 797a cc3d 6ab3 50be
00000280: 16a1 603f 1ac6 2fbe 8cbf b03e 3ef7 b4be
00000290: c247 75bf d70b 2b3f 1c3e 3e3d 34ee e43e
000002a0: f308 b4be e1ea 92bf 14fd 43bf 4651 023c
000002b0: 3b05 ccbd fef2 8b3d c572 183e ddb2 02bf
000002c0: 819d 5c3f f103 8dbe 1052 013f ebf8 973f
000002d0: 5143 85be bf74 d1bd 4ff7 ee3c 2583 febe
000002e0: 8c7f 8fbf a822 b1be 3592 893e f42d 33bf
000002f0: fee7 18bf 988e 023f 1f0c af3e a4a7 e6be
00000300: c8fc 233f bfce 763e 01f4 823e 9da8 ddbe
00000310: 932d 06bf 50e6 10bc 4810 3b3d f049 633e
00000320: 6d49 9e3e 8ead 863e c861 623f 08bf bd3f
00000330: e612 70be 53c1 b1be 4776 58be 9c25 88bf
00000340: 7979 343e 0a91 da3e a112 12bf 045e 4c3e
00000350: 908c c9be 8db0 c8be da64 d3bc e826 c63d
00000360: 36d2 a9bd 0e6d 173f 117b 32be 62e3 c1be
00000370: a048 47bf 3f07 7bbe 454c dc3d b58d 983e
00000380: 1216 d43e 5abf 08bf afa4 703e db4b aebd
00000390: 1327 46bf d7f1 d33e 9022 0e3f e9a4 79be
000003a0: a745 9cbe ac09 9abe 7c32 503f 904c 5e3c
000003b0: 27da 22bf 9860 d7bd 1cf5 d9be be67 243f
000003c0: 0bb4 5b3e acbf ec3d 1a30 603e 9426 41bc
000003d0: 3f6a 08bf 6671 4cbf ed7f 98bf dab1 a9bd
000003e0: 414b 7a3f d853 13bd cd9a 833e 8a03 c6bc
000003f0: 361e d93b 168c 9b3e c2a0 ef3e c7e8 2c3e

fc1.bias f4 [256]
0.08979694 -0.017498747 0.38425434 -0.3958048 -0.06344864 -0.16398928 -0.29194555 0.109766
-0.1666029 -0.008709179 0.17102075 0.07598022 0.05117503 -0.2821931 0.13559574 0.31117335
-0.28262904 -0.17171025 0.12242734 0.16096972 -0.075753555 0.13909169 -0.16573372 -0.41620755
-0.16490063 -0.10061253 -0.110067055 -0.4260082 -0.033293515 -0.24940331 0.20353048 -0.25253877
0.116867565 -0.04028338 -0.057493225 -0.2521382 -0.14894894 -0.4011806 -0.13477431 -0.12891823
-0.18568484 -0.38960424 0.0077860355 0.2103061 -0.07694911 -0.6182505 0.21565397 -0.54438025
0.48863426 0.122735865 -0.20524743 -0.03627468 -0.27595076 -0.14161207 -0.19371724 0.029850475
-0.4145748 -0.49228996 -0.2806451 0.29402694 0.055401932 0.2659319 0.12534492 -0.19412939
0.17206368 -0.12350739 -0.4273658 0.041541588 -0.24330162 -0.08289466 -0.095010795 -0.22773579
0.11585967 -0.16346873 -0.22996795 0.19417924 0.043959282 0.040916603 -0.09941062 -0.06937364
-0.29496637 -0.10295572 -0.037242077 -0.29611722 0.23614132 -0.0077880914 0.2826479 -0.3335207
-0.5089543 -0.13627174 -0.36643058 -0.06373886 0.14011014 -0.1353561 0.21587577 0.23744196
0.16999684 -0.6767207 -0.18927349 0.21276887 0.15213004 -0.3634647 0.31070915 0.33706927
0.0780595 0.042752862 0.18422617 0.021107037 0.22125769 0.3146947 0.26408327 0.13693915
0.29315254 0.102953255 0.2204339 0.11107845 0.18076164 0.15595055 0.21064614 -0.08616241
0.16902997 -0.26282603 0.2725333 -0.4321046 0.055749446 0.11160086 0.04814543 -0.0037087358
0.347186 -0.12855904 -0.43909422 0.01107887 -0.043319132 -0.05580393 0.039806843 -0.43134314
0.17505741 0.37459302 0.45940712 0.30932608 0.2522723 0.03004376 -0.8003676 0.33742926
-0.015931949 -0.17122398 -0.24290846 -0.39563137 -0.037234202 -0.29957774 -0.24482518 -0.3567422
-0.08594246 -0.33895 -0.5562323 -0.20843506 -0.022095233 -0.24692698 0.015516514 0.29785088
-0.033026885 0.5288074 -0.061469246 -0.39171457 -0.15371631 0.15355082 -0.38738388 0.21336935
0.24119525 0.07974281 0.11383604 -0.44714698 -0.3927747 -0.5061112 0.40445906 -0.2504653
0.2807612 -0.014505971 -0.17940383 -0.4374218 -0.051699948 0.39505872 -0.03631412 -0.27825522
-0.18719904 -0.076020196 0.05840068 -0.05449421 0.006989805 -0.14123562 -0.07158746 -0.07772906
-0.2409472 -0.226087 0.025448197 -0.1697341 -0.1986433 0.23368818 0.11607132 -0.5685238
0.013606736 0.040644746 -0.29785392 -0.18027969 0.160339 -0.06895214 -0.120487206 -0.1961143
-0.5022371 -0.13339974 -0.06775999 0.06845689 -0.14906026 -0.34891602 0.20644797 -0.000885953
0.2703279 -0.048296236 -0.16675775 -0.04930899 -0.14692155 0.33183205 -0.025232064 -0.08897394
-0.16821037 -0.36637357 -0.14914118 -0.014246598 0.12658896 -0.00066497707 0.17682597 0.27431053
-0.110630244 0.3428103 0.030241143 -0.42284456 -0.06973383 0.31158498 0.11680964 -0.16890314
0.18103684 -0.41084135 0.027866254 -0.6319542 -0.15919976 -0.13553695 -0.24032603 0.13323015
-0.45566747 -0.41938263 -0.50544024 -0.020348076 -0.02977042 0.05611469 0.04162706 -0.15858832
00000000: 75e7 b73d 8859 8fbc fcbc c43e eda6 cabe
00000010: 5cf1 81bd ceec 27be e379 95be ffcc e03d
00000020: f399 2abe f2b0 0ebc 1020 2f3e 859b 9b3d
00000030: e99c 513d 9d7b 90be 9cd9 0a3e 1d52 9f3e
00000040: c1b4 90be d0d4 2fbe 2fbb fa3d 3fd5 243e
00000050: ae24 9bbd 0d6e 0e3e 1ab6 29be 2819 d5be
00000060: b6db 28be f10d cebd d66a e1bd bf1d dabe
00000070: c85e 08bd 9563 7fbe 4b6a 503e c34c 81be
00000080: 4358 ef3d 2f00 25bd 047e 6bbd 4218 81be
00000090: 1286 18be 8b67 cdbe 4702 0abe 2403 04be
000000a0: 2b24 3ebe 357a c7be 0022 ff3b 7b5a 573e
000000b0: 7f97 9dbd aa45 1ebf 65d4 5c3e 815c 0bbf
000000c0: 452e fa3e f15c fb3d 622c 52be c294 14bd
000000d0: 6b49 8dbe c102 11be d05d 46be fc88 f43c
000000e0: 2643 d4be 6e0d fcbe b7b0 8fbe b38a 963e
000000f0: 23ed 623d 3a28 883e 6b5a 003e dbc9 46be
00000100: 7631 303e 71f1 fcbd b1cf dabe 8327 2a3d
00000110: 0f24 79be adc4 a9bd 0595 c2bd 9233 69be
00000120: d647 ed3d 5964 27be b87c 6bbe ecd6 463e
00000130: a60e 343d 2b98 273d cc97 cbbd c413 8ebd
00000140: d505 97be 73da d2bd 268b 18bd ad9c 97be
00000150: 08cf 713e 3f33 ffbb 3ab7 903e 3ac3 aabe
00000160: d44a 02bf d28a 0bbe ca9c bbbe 8589 82bd
00000170: 0879 0f3e ca9a 0abe 8a0e 5d3e fc23 733e
00000180: a713 2e3e 913d 2dbf e9d0 41be 15e0 593e
00000190: fac7 1b3e 0c18 babe 4515 9f3e 5894 ac3e
000001a0: a9dd 9f3d a01d 2f3d c9a5 3c3e aae8 ac3c
000001b0: 6091 623e aa1f a13e ec35 873e c739 0c3e
000001c0: 1718 963e 28d9 d23d 6db9 613e 197d e33d
000001d0: 9419 393e 80b1 1f3e 9fb3 573e eb75 b0bd
000001e0: 3116 2d3e 2291 86be 7c89 8b3e d03c ddbe
000001f0: 8859 643d fe8e e43d 2434 453d 430e 73bb
00000200: 5dc2 b13e fba4 03be f5d0 e0be 2684 353c
00000210: 676f 31bd a992 64bd 800c 233d 02d9 dcbe
00000220: 4042 333e a8ca bf3e 6937 eb3e fd5f 9e3e
00000230: d629 813e 551e f63c e4e4 4cbf 87c3 ac3e
00000240: b883 82bc 5755 2fbe ffbc 78be 3290 cabe
00000250: e482 18bd 4162 99be 74b3 7abe eaa6 b6be
00000260: 9a02 b0bd db8a adbe 3d65 0ebf 0070 55be
00000270: 1001 b5bc 6dda 7cbe fa38 7e3c e97f 983e
00000280: 3347 07bd ec5f 073f 2dc7 7bbd d08e c8be
00000290: cf67 1dbe 6d3c 1d3e 2e57 c6be 7f7d 5a3e
000002a0: e3fb 763e 3350 a33d df22 e93d 73f0 e4be
000002b0: c419 c9be 8190 01bf 4215 cf3e fd3c 80be
000002c0: efbf 8f3e 74aa 6dbc a3b5 37be c0f5 dfbe
000002d0: 53c3 53bd 2345 ca3e 1dbe 14bd 7877 8ebe
000002e0: 1bb1 3fbe 7ab0 9bbd 8d35 6f3d 5235 5fbd
000002f0: bc0a e53b 12a0 10be 729c 92bd 6a30 9fbd
00000300: ddba 76be 5a83 67be bd78 d03c c7ce 2dbe
00000310: 2669 4bbe f44b 6f3e cdb6 ed3d c78a 11bf
00000320: caee 5e3c 1b7b 263d 4f80 98be 3d9b 38be
00000330: e82f 243e c836 8dbd ffc1 f6bd 30d2 48be
00000340: 9c92 00bf f199 08be c0c5 8abd 2033 8c3d
00000350: 41a3 18be 1fa5 b2be 1967 533e 4d3f 68ba
00000360: 6b68 8a3e 46d2 45bd 8bc2 2abe 39f8 49bd
00000370: 9a72 16be e4e5 a93e 79b3 cebc f837 b6bd
00000380: 573f 2cbe 5195 bbbe 77b8 18be 906a 69bc
00000390: 89a0 013e db51 2eba de11 353e 6e72 8c3e
000003a0: 1c92 e2bd d584 af3e 46bc f73c 157f d8be
000003b0: 9cd0 8ebd 1188 9f3e e439 ef3d f2f4 2cbe
000003c0: b961 393e cc59 d2be c547 e43c c0c7 21bf
000003d0: 4305 23be 33ca 0abe 0718 76be 7c6d 083e
000003e0: 3f4d e9be 52b9 d6be 8864 01bf 02b1 a6bc
000003f0: 19e1 f3bc 84d8 653d 2381 2a3d fa64 22be

fc2.weight f4 [256, 256]
-0.06725236 -0.044648252 -0.03656097 0.023244614 -0.03190217 0.03221338 -0.050222676 0.024460612
-0.05835749 -0.00747331 0.00196292 -0.003703019 -0.0036425174 0.02551058 -0.015924059 -0.053369578
0.04960546 -0.047892194 0.05162141 0.0010053394 -0.06471394 0.017357135 0.03467367 -0.038965978
0.011761211 -0.026674062 -0.015455758 0.0019146599 -0.07706171 0.042699493 -0.046919737 -0.029994292
-0.0013117853 -0.041471165 -0.05886862 0.031333998 0.018333584 0.051625893 -0.007828974 0.0067850426
-0.078044586 -0.03250382 0.049150284 0.010588958 -0.06396962 -0.020850893 0.001822047 0.05527332
-0.06523542 0.02270926 0.014077617 0.010298242 0.03899874 -0.0064134505 0.01553691 -0.03622473
0.011726261 -0.041004967 0.021441396 0.050826725 -0.052238554 -0.078349054 -0.034001604 0.019849725
0.04524115 -0.03872849 0.040229943 -0.007993027 0.016597196 0.049696207 -0.044017777 0.034002986
-0.008970364 -0.0058095087 0.017170077 -0.009203879 0.011471201 -0.0033192611 0.024112064 -0.007828468
-0.035751816 -0.04606535 -0.06413478 -0.04447389 -0.034681633 -0.06309184 0.013124241 -0.06392724
-0.0576546 0.037577506 -0.053865284 -0.06357192 0.035372607 -0.036436226 -0.029720027 0.04517238
-0.030340629 -0.019252433 0.02047203 0.0047418703 0.017680435 -0.015341902 0.05409057 -0.07491082
0.033329394 -0.029905412 -0.06663781 0.012495478 -0.07137175 -0.007997867 -0.0022999735 0.018872919
0.026891481 0.015890965 0.0071743564 -0.01492994 -0.046479847 0.042198565 -0.07267175 0.013823852
-0.029205767 0.008570797 -0.05346193 -0.015336241 -0.067587994 -0.017977646 0.034175906 -0.027386555
-0.0120006 0.03876136 -0.051887963 -0.074348375 0.044418614 -0.0037655032 0.035798796 -0.009910612
-0.064884536 -0.029207557 -0.054301634 -0.0029900721 0.030683877 0.012003143 -0.037813786 -0.043628614
0.026528975 -0.015539758 -0.03648156 -0.06726869 0.0012240703 -0.015326823 0.034194674 -0.008887948
0.04092095 -0.01773226 -0.067031264 0.023738388 -0.008556019 0.029461842 -0.053175993 -0.023780132
0.0047808057 -0.027853804 -0.031241685 -0.017805476 0.021973435 0.046986155 0.02044845 0.018566815
-0.009278125 -0.05697377 -0.031056093 -0.0053988425 -0.0031269062 0.034879744 -0.0200048 0.0036150585
0.02132903 0.04726218 0.013733606 -0.006764296 -0.036317624 0.00012050052 -0.014791834 -0.009989315
-0.044510096 -0.05647579 -0.008500988 -0.0039395248 0.026398405 -0.061327707 -0.060919207 -0.020342251
0.022195615 -0.0306374 -0.063915685 -0.010969146 0.0028558099 -0.061784968 -0.022218361 -0.010283424
0.029477794 0.0021481283 0.043285463 0.026739275 -0.028013587 -0.04988382 -0.06724421 -0.050750528
-0.024258373 0.019882953 -0.06500264 -0.05447323 -0.054498978 -0.043247364 -0.06096554 -0.05421642
-0.049761806 -0.013650932 0.0011226084 0.04336083 -0.057491895 -0.016923863 -0.017957287 -0.060095463
-0.048993345 -0.031951286 0.052069254 0.028759388 -0.029174581 -0.01178956 -0.021996688 -0.066475496
-0.060149044 -0.023242109 0.045083426 -0.013494264 0.0142649645 -0.05898925 0.025161486 -0.015088292
-0.013772538 0.0069793165 -0.06459188 -0.049115952 -0.017225737 -0.057345197 -0.0608418 0.002500774
0.011603414 -0.041026246 -0.013596527 -0.04797 -0.03191771 -0.040181737 -0.06740748 -0.010081818
00000000: 9bbb 89bd 16e1 36bd f5c0 15bd 7d6b be3c
00000010: daab 02bd 2df2 033d 4bb6 4dbd 9f61 c83c
00000020: 4308 6fbd abe2 f4bb 55a4 003b 5aae 72bb
00000030: 4db7 6ebb 90fb d03c 2c73 82bc 0f9a 5abd
00000040: 182f 4b3d 9b2a 44bd f970 533d 98c5 833a
00000050: be88 84bd 8d30 8e3c fa05 0e3d ca9a 1fbd
00000060: 18b2 403c 9083 dabc 263a 7dbc 53f5 fa3a
00000070: 88d2 9dbd aae5 2e3d e92e 40bd 97b6 f5bc
00000080: 36f0 abba abdd 29bd 3920 71bd 1458 003d
00000090: 5030 963c ac75 533d 1945 00bc 1055 de3b
000000a0: d7d5 9fbd ba22 05bd cf51 493d 4f7d 2d3c
000000b0: 8102 83bd 7ecf aabc c1d1 ee3a 4766 623d
000000c0: 269a 85bd c508 ba3c cea5 663c f5b9 283c
000000d0: 25bd 1f3d ec27 d2bb 868e 7e3c 6260 14bd
000000e0: 811f 403c d3f4 27bd dea5 af3c af2f 503d
000000f0: 18f8 55bd 7875 a0bd 4445 0bbd e49b a23c
00000100: c94e 393d c4a1 1ebd 27c8 243d 2ff5 02bc
00000110: d8f6 873c 408e 4b3d fc4b 34bd b746 0b3d
00000120: 6ff8 12bc b15d bebb 43a8 8c3c decb 16bc
00000130: b4f1 3b3c f687 59bb aa86 c53c fa42 00bc
00000140: 7f70 12bd 05af 3cbd 1859 83bd 412a 36bd
00000150: 540e 0ebd 4b36 81bd 0e07 573c 49ec 82bd
00000160: 3b27 6cbd dfea 193d d8a1 5cbd ff31 82bd
00000170: dee2 103d 273e 15bd 6a77 f3bc ac06 393d
00000180: e98c f8bc 47b7 9dbc f5b4 a73c b161 9b3b
00000190: 8fd6 903c 9a5c 7bbc 138e 5d3d d86a 99bd
000001a0: 6784 083d 32fc f4bc 6779 88bd d5b9 4c3c
000001b0: 5a2b 92bd 7c09 03bc 27bb 16bb 619b 9a3c
000001c0: 864b dc3c c52d 823c dd16 eb3b b59c 74bc
000001d0: a761 3ebd 67d8 2c3d edd4 94bd 707d 623c
000001e0: ef40 efbc 876c 0c3c e6fa 5abd db44 7bbc
000001f0: 936b 8abd db45 93bc 09fc 0b3d c559 e0bc
00000200: 2a9e 44bc 3bc4 1e3d 7988 54bd f643 98bd
00000210: 4bf0 353d a9c6 76bb c2a1 123d 1f60 22bc
00000220: 2fe2 84bd b044 efbc 646b 5ebd 16f5 43bb
00000230: c15c fb3c d5a8 443c a1e2 1abd ebb3 32bd
00000240: 4b53 d93c 789a 7ebc b06d 15bd 2bc4 89bd
00000250: fc70 a03a 5b1d 7bbc b70f 0c3d c19e 11bc
00000260: ba9c 273d 3f43 91bc b047 89bd 0277 c23c
00000270: 8b2e 0cbc f659 f13c 12cf 59bd 8dce c2bc
00000280: 4ea8 9c3b a92d e4bc 90ee ffbc cadc 91bc
00000290: a201 b43c 8e74 403d 8283 a73c 6f19 983c
000002a0: 4703 18bc 545d 69bd 5969 febc c6e8 b0bb
000002b0: c8ec 4cbb 10de 0e3d 1be1 a3bc 9eea 6c3b
000002c0: 38ba ae3c fd95 413d eb02 613c 07a7 ddbb
000002d0: cac1 14bd 39b5 fc38 7359 72bc 39aa 23bc
000002e0: 3850 36bd 2853 67bd ba47 0bbc 2117 81bb
000002f0: 7841 d83c c332 7bbd 6b86 79bd cba4 a6bc
00000300: 94d3 b53c 49fb fabc 3ae6 82bd efb7 33bc
00000310: 8a28 3b3b 3c12 7dbd 4803 b6bc ce7b 28bc
00000320: 6a7b f13c 9dc7 0c3b 194c 313d 530c db3c
00000330: c07c e5bc fa52 4cbd 55b7 89bd c9df 4fbd
00000340: 7fb9 c6bc 93e1 a23c 1b20 85bd 521f 5fbd
00000350: 523a 5fbd 2624 31bd 01b7 79bd 0912 5ebd
00000360: 09d3 4bbd 29a8 5fbc 7d24 933a 209b 313d
00000370: 9f7c 6bbd eaa3 8abc 291b 93bc a926 76bd
00000380: 3fad 48bd 5adf 02bd 9246 553d cf98 eb3c
00000390: 88ff eebc 0029 41bc 6632 b4bc 4e24 88bd
000003a0: d85e 76bd 3c66 bebc 66a9 383d 0c17 5dbc
000003b0: 99b7 693c b69e 71bd 761f ce3c e234 77bc
000003c0: 36a6 61bc c0b2 e43b bf48 84bd cf2d 49bd
000003d0: fd1c 8dbc cce2 6abd 4035 79bd 07e4 233b
000003e0: 3f1c 3e3c 230b 28bd f8c3 5ebc 317c 44bd
000003f0: 25bc 02bd 9b95 24bd ef0c 8abd 362e 25bc

fc2.bias f4 [256]
0.017797124 -0.03287183 -0.044830143 -0.30748403 -0.055260867 0.14424038 -0.17388652 0.025490617
-0.07438527 0.08649905 0.29913697 -0.027979348 -0.39203715 0.038335327 -0.064466774 -0.27523443
0.026812376 0.13127899 -0.019970005 -0.10042453 -0.07598467 0.14519486 -0.02202435 -0.044426564
-0.10617643 -0.102536745 -0.023167204 0.03960725 0.14846049 0.1512576 0.10994791 -0.21849617
-0.058755856 -0.020676365 0.0965494 -0.026924917 -0.09894148 -0.10778588 -0.032394517 -0.047909655
-0.113062926 0.1842295 -0.0018140054 -0.05944971 -0.045055725 0.060687143 0.2611063 -0.054416325
-0.0846132 0.12289701 0.0029200201 -0.23705174 -0.07422994 -0.07354219 0.14707999 -0.0352745
0.18736456 -0.17480363 0.04429578 -0.039894752 -0.08549212 0.0312368 -0.18986937 0.13106409
-0.075481 0.08753554 -0.25843593 0.11675211 -0.05109221 0.028438618 0.118351944 -0.061548132
-0.06536916 -0.052729495 0.03140821 -0.019610597 0.008295595 -0.061691664 -0.036803294 -0.14791563
-0.029997779 0.07817821 -0.07882136 0.12269077 0.24777047 -0.038578365 0.006703015 -0.038070146
0.0855238 0.14374296 0.18860349 0.008211554 -0.07907176 -0.09532063 -0.025480544 0.11679763
0.0820449 -0.01303668 0.06329015 0.0838715 -0.064723335 0.09795885 0.10182706 0.11074557
-0.09225173 0.1933996 0.110055916 0.02453264 0.036766253 -0.19995616 0.09685005 0.14088157
-0.023520723 0.003744232 -0.06896115 0.15462506 0.006739715 0.09438748 0.058666453 -0.06020603
-0.033803806 -0.02346001 -0.01072772 0.0021272588 -0.09585613 -0.033976506 0.14835903 0.008956404
0.15943152 -0.052086607 -0.09928416 0.02862568 -0.070283934 0.02159297 -0.005301802 0.021153606
-0.03162257 -0.09471489 0.11940761 0.12008824 -0.039537102 -0.049266174 -0.07009753 0.09025052
0.07795744 -0.1681022 0.1201131 -0.59450346 0.0205589 -0.0019806533 -0.043691482 0.07631758
0.0733306 0.08525939 0.17389373 -0.040703416 -0.10987378 -0.054656856 -0.06448141 0.019097265
-0.02136881 -0.167978 0.15198845 0.05582951 -0.045710903 0.0055182017 -0.22228895 0.034362495
-0.07163627 -0.1700083 0.032414578 0.15573306 0.12607029 0.05488715 -0.06797979 -0.338922
-0.061905105 -0.100585945 -0.041167054 0.013293596 -0.15885493 0.08349784 -0.034648765 0.039762467
0.04021343 -0.061538834 0.043242954 -0.046032436 -0.036201037 -0.044455387 -0.055835124 -0.06740086
0.0350217 -0.005577068 -0.025607642 0.08243 -0.084864266 0.18556018 0.1525745 0.043750595
-0.06813767 0.0038478882 -0.20748043 0.07536761 -0.094502226 -0.08280579 0.09420769 -0.033052713
-0.08040243 0.07969811 -0.15945898 -0.03956429 0.10478684 -0.00287054 0.005219077 0.007896238
-0.14265384 0.20612113 0.14497526 -0.011162161 -0.055511434 -0.020546256 0.013831614 -0.04210145
0.060925193 0.21974601 -0.010248021 0.0911944 0.15163618 0.06366336 -0.09043612 0.04574028
-0.18035246 -0.0005040248 -0.0975694 0.017623464 -0.011489305 -0.40339947 -0.06853197 -0.25652424
0.1855382 -0.047002494 -0.045791026 -0.09371811 0.09313613 0.15005696 0.14862548 -0.020660792
-0.07587363 -0.022428704 -0.06673862 -0.1750863 0.075437084 0.030951418 -0.07383624 -0.16181083
00000000: 46cb 913c 9da4 06bd d09f 37bd 8c6e 9dbe
00000010: 3859 62bd c0b3 133e 4f0f 32be b3d1 d03c
00000020: 4e57 98bd 6a26 b13d 7b28 993e f234 e5bc
00000030: 18b9 c8be 8105 1d3d 2807 84bd 87eb 8cbe
00000040: a1a5 db3c 006e 063e 2398 a3bc 60ab cdbd
00000050: da9d 9bbd f6ad 143e 696c b4bc a1f8 35bd
00000060: 0773 d9bd c9fe d1bd 26c9 bdbc 363b 223d
00000070: 0706 183e 46e3 1a3e 5f2c e13d 76bd 5fbe
00000080: fba9 70bd 7b61 a9bc b1bb c53d a591 dcbc
00000090: d5a1 cabd d8be dcbd 1db0 04bd ea3c 44bd
000000a0: 898d e7bd a8a6 3c3e ecc3 edba 8a81 73bd
000000b0: 5a8c 38bd 1593 783d baaf 853e a7e3 5ebd
000000c0: af49 adbd 6db1 fb3d cf5d 3f3b b1bd 72be
000000d0: de05 98bd 4a9d 96bd 239c 163e fe7b 10bd
000000e0: 7fdc 3f3e b9ff 32be 7e6f 353d ae68 23bd
000000f0: 7e16 afbd 51e4 ff3c 1e6d 42be aa35 063e
00000100: c895 9abd d545 b33d b751 84be bb1b ef3d
00000110: 1146 51bd 1bf8 e83c 8162 f23d e519 7cbd
00000120: 44e0 85bd e2fa 57bd e5a5 003d 67a6 a0bc
00000130: 3fea 073c 66b0 7cbd 0dbf 16bd 3277 17be
00000140: e7bd f5bc e61b a03d 186d a1bd 4c45 fb3d
00000150: 8bb7 7d3e 5904 1ebd f7a4 db3b 71ef 1bbd
00000160: 1a27 af3d 5b31 133e 4621 413e c189 063c
00000170: 60f0 a1bd 7637 c3bd 93bc d0bc 9933 ef3d
00000180: 2807 a83d cd97 55bc 449e 813d d2c4 ab3d
00000190: ab8d 84bd a69e c83d b58a d03d 93ce e23d
000001a0: 7aee bcbd 8b0a 463e ff64 e13d adf8 c83c
000001b0: 3698 163d 4fc1 4cbe 5259 c63d 4243 103e
000001c0: 88ae c0bc ca61 753b 813b 8dbd 0856 1e3e
000001d0: d4d8 dc3b 394e c13d 3c4c 703d 999a 76bd
000001e0: dc75 0abd 352f c0bc 52c3 2fbc 7b69 0b3b
000001f0: 3850 c4bd f32a 0bbd 6eeb 173e e2bd 123c
00000200: 0442 233e c458 55bd 7e55 cbbd 6780 ea3c
00000210: 06f1 8fbd bde3 b03c bdba adbb 544a ad3c
00000220: ab86 01bd e1f9 c1bd fa8b f43d d3f0 f53d
00000230: a8f1 21bd 54cb 49bd 4b8f 8fbd 44d5 b83d
00000240: 26a8 9f3d fc22 2cbe dbfd f53d 6131 18bf
00000250: 236b a83c d9cd 01bb d7f5 32bd 644c 9c3d
00000260: 5b2e 963d 7a9c ae3d 3311 323e a0b8 26bd
00000270: 8105 e1bd dedf 5fbd d40e 84bd de71 9c3c
00000280: a50d afbc 6d02 2cbe dca2 1b3e 7cad 643d
00000290: 5b3b 3bbd 08d2 b43b b79f 63be b0bf 0c3d
000002a0: 09b6 92bd a816 2ebe 26c5 043d 7d78 1f3e
000002b0: 9218 013e 59d1 603d fd38 8bbd 2f87 adbe
000002c0: 3590 7dbd 0100 cebd c99e 28bd 62cd 593c
000002d0: deaa 22be ea00 ab3d ddeb 0dbd f8dd 223d
000002e0: d6b6 243d 2510 7cbd 861f 313d 828c 3cbd
000002f0: 8a47 14bd da16 36bd 5fb3 64bd 7609 8abd
00000300: ea72 0f3d d6bf b6bb 1ec7 d1bc 0fd1 a83d
00000310: 51cd adbd 7d03 3e3e 7d3c 1c3e d333 333d
00000320: c38b 8bbd da2c 7c3b c075 54be 555a 9a3d
00000330: 628a c1bd 1596 a9bd f6ef c03d 4862 07bd
00000340: 07aa a4bd c338 a33d 3749 23be 2a0e 22bd
00000350: 7c9a d63d ab1f 3cbb cb04 ab3b 395f 013c
00000360: d913 12be 6b11 533e 6574 143e 7fe1 36bc
00000370: f55f 63bd 9f50 a8bc fe9d 623c 9272 2cbd
00000380: b28c 793d 1905 613e 51e7 27bc 21c4 ba3d
00000390: 8446 1b3e f061 823d 9336 b9bd 295a 3b3d
000003a0: 51ae 38be 8820 04ba 77d2 c7bd 155f 903c
000003b0: a33d 3cbc 608a cebe 7d5a 8cbd 2557 83be
000003c0: bafd 3d3e b085 40bd 5f8f 3bbd 48ef bfbd
000003d0: 28be be3d 88a8 193e 4731 183e d240 a9bc
000003e0: a263 9bbd 67bc b7bc 42ae 88bd d349 33be
000003f0: c27e 9a3d d48d fd3c 7437 97bd bdb1 25be

fc3.weight f4 [2, 256]
-0.015307634 1.2685769 -0.031211747 2.5626407 -0.92168117 -0.3821045 -0.14045425 0.032579385
0.023421444 -0.6450457 -0.02582628 -0.04202862 -0.27724054 -0.05265793 -0.35782123 0.5554456
3.7844281 -0.033086203 -0.62094957 1.8207904 0.58111495 -1.406231 -0.0306832 0.04158134
0.39871204 6.680471 0.011576178 -0.019876504 -5.8140726 0.65766966 0.16976997 -0.63602483
0.031676095 -0.33247787 0.39362156 -0.0634906 -0.25370258 0.07601923 -0.5550203 -1.0104737
0.9153013 -0.41021734 -0.037566308 1.0707654 -6.5416565 0.56752676 -0.39451617 -0.032657653
0.0020502333 -0.23591486 0.021921614 0.4842237 -0.008611677 -0.36953685 0.63903934 0.018911624
6.8167906 -0.07424608 1.1684988 -0.036598086 0.2944034 -0.45113477 0.2769857 -0.099602856
0.008995626 0.34295717 -2.0601196 -0.15289989 0.019835694 -0.32370633 0.8531311 -0.026113883
-0.007720559 0.031956512 -0.043582596 -0.0015745993 -0.013988871 0.02265091 -0.03785163 0.35354254
0.5966485 1.4622294 0.008897507 -0.09326841 -0.14265485 -0.08744086 1.3600522 -0.5521434
-0.519437 -0.13508366 0.6723927 0.8980775 0.02989202 0.18852392 -0.09935666 0.6756623
-0.7426862 0.82322264 0.43670696 -2.377229 -0.42729685 -1.0604119 -0.72894174 0.7188382
0.087575816 -0.13332531 0.43936133 -0.023122078 0.014080957 0.45365638 -1.4634595 1.8559692
0.038532276 -0.026396463 -0.036540054 -0.22985442 -0.055779934 -0.8594006 0.5578365 0.3640423
0.095350645 0.05123994 -0.029034685 -0.013157943 -0.3231277 0.69331414 0.18950188 0.020505194
-0.42214957 -0.0033885352 -0.8316033 -1.595396 0.082131766 1.1640475 -0.04087241 0.0033036845
-2.8752275 -0.43676734 -0.38716194 -0.005984206 0.033653215 -0.03735087 0.017873017 0.2200214
0.80715805 -0.3382578 -0.322468 -1.786682 0.54216653 -0.00044426354 0.01660012 -0.29019263
2.2045608 -0.56003493 0.58691764 0.023088232 0.44482094 0.011097891 0.23183367 -0.037744977
0.03883546 0.4584658 -0.06559049 -0.64219546 0.033992577 -0.16731465 -4.157718 -0.011081006
0.6559481 0.10829671 -0.35477424 -0.61965233 -0.2734325 0.50221515 0.0068896706 0.4161663
-0.07834015 0.37746373 -0.3230195 0.0028912942 -0.16500083 0.4540847 0.0077923923 2.7268221
-0.023876527 0.38720906 -0.6415837 -0.011951464 -0.033193152 -1.3781608 -0.052817527 -0.011745236
-0.084199555 -0.017657658 -5.894501 0.813251 -0.10123766 0.02190394 -0.17911543 0.243908
-0.054346617 0.06454586 0.06650696 0.7373632 -2.396431 0.4379916 -0.97378427 0.00038205305
0.14453423 1.0312476 0.677371 0.046700727 1.2968466 0.16826285 0.37645057 -0.033431176
-0.2431555 -3.6186972 0.12983355 0.02607541 -0.50476944 0.022102617 0.009237224 0.01270733
-0.44808537 -0.18324736 -0.868342 -0.92722255 -0.13757214 5.5829225 3.1890402 0.51413065
-1.0114578 -2.3341093 0.15607053 -0.028799193 0.5547537 -0.37873828 -0.035246644 0.021424262
0.53677195 0.0016114736 0.021233937 -0.07507898 1.6604317 6.532784 0.49860197 0.032729574
0.0055309352 -0.8283782 -0.044179074 0.40336588 -0.25768548 -3.4071667 0.041685395 0.900846
00000000: dfcc 7abc ba60 a23f c7af ffbc 4e02 2440
00000010: 4cf3 6bbf 33a3 c3be 3dd3 0fbe f671 053d
00000020: 54de bf3c b721 25bf a291 d3bc 3426 2cbd
00000030: 79f2 8dbe d7af 57bd 5834 b7be af31 0e3f
00000040: 1234 7240 6685 07bd 8df6 1ebf a90f e93f
00000050: f3c3 143f 61ff b3bf 565b fbbc 3251 2a3d
00000060: fc23 cc3e 6bc6 d540 02aa 3d3c 0dd4 a2bc
00000070: e20c bac0 0a5d 283f 2ed8 2d3e 86d2 22bf
00000080: cbbe 013d 8a3a aabe c488 c93e 5c07 82bd
00000090: 4ee5 81be f8af 9b3d cf15 0ebf 3457 81bf
000000a0: 3051 6a3f 0208 d2be 21df 19bd d70e 893f
000000b0: 4055 d1c0 6f49 113f 06fe c9be 08c4 05bd
000000c0: 355d 063b aa93 71be f594 b33c 2bec f73e
000000d0: fe17 0dbc ef33 bdbe 1598 233f 8dec 9a3c
000000e0: 2623 da40 540e 98bd 5e91 953f e0e7 15bd
000000f0: 0bbc 963e 23fb e6be 12d1 8d3e 95fc cbbd
00000100: 6462 133c 1598 af3e 00d9 03c0 ca91 1cbe
00000110: 777e a23c d6bc a5be cd66 5a3f c8ec d5bc
00000120: befc fcbb d5e4 023d aa83 32bd c962 ceba
00000130: 9431 65bc 678e b93c 500a 1bbd 8703 b53e
00000140: f5bd 183f 552a bb3f d9c6 113c 8203 bfbd
00000150: 1d14 12be 3214 b3bd 3116 ae3f 4559 0dbf
00000160: d3f9 04bf 5f53 0abe ee21 2c3f 68e8 653f
00000170: 1ce0 f43c 6a0c 413e 817b cbbd 34f8 2c3f
00000180: af20 3ebf b8be 523f 0e98 df3e 8524 18c0
00000190: a7c6 dabe 94bb 87bf ed9b 3abf c805 383f
000001a0: f35a b33d 6e86 08be f8f3 e03e 836a bdbc
000001b0: d0b3 663c a645 e83e a452 bbbf 6690 ed3f
000001c0: 05d4 1d3d 653d d8bc 06ab 15bd f55e 6bbe
000001d0: 8079 64bd ad01 5cbf 5fce 0e3f c163 ba3e
000001e0: 3347 c33d f9e0 513d 26da edbc 6a94 57bc
000001f0: fe70 a5be 097d 313f c80c 423e 82fa a73c
00000200: fd23 d8be 3012 5ebb f4e3 54bf f035 ccbf
00000210: b334 a83d 82ff 943f d469 27bd a182 583b
00000220: ba03 38c0 f89f dfbe 173a c6be 2917 c4bb
00000230: f4d7 093d 3afd 18bd 6f6a 923c 4a4d 613e
00000240: e9a1 4e3f 2030 adbe 871a a5be ffb1 e4bf
00000250: 6dcb 0a3f 0bec e8b9 fafc 873c 2194 94be
00000260: 8617 0d40 735e 0fbf 3c40 163f 8823 bd3c
00000270: 92bf e33e eed3 353c ce65 6d3e 7a9a 1abd
00000280: ee11 1f3d 08bc ea3e 4f54 86bd ec66 24bf
00000290: cd3b 0b3d 8854 2bbe 070c 85c0 1c8d 35bc
000002a0: 37ec 273f aaca dd3d f8a4 b5be 89a1 1ebf
000002b0: 58ff 8bbe 2c91 003f bfc2 e13b c013 d53e
000002c0: cd70 a0bd ed42 c13e d062 a5be de7b 3d3b
000002d0: faf5 28be ca7d e83e 5357 ff3b 4184 2e40
000002e0: b598 c3bc 4440 c63e d43e 24bf 13d0 43bc
000002f0: 8bf5 07bd 9367 b0bf 3157 58bd 176f 40bc
00000300: d170 acbd cba6 90bc c19f bcc0 3831 503f
00000310: b155 cfbd e46f b33c 096a 37be 05c3 793e
00000320: 8f9a 5ebd 9f30 843d cd34 883d d6c3 3c3f
00000330: 205f 19c0 6f40 e03e ed49 79bf 4b4e c839
00000340: c800 143e ecff 833f 3068 2d3f 4349 3f3d
00000350: 12ff a53f 194d 2c3e 21be c03e 21ef 08bd
00000360: c1fd 78be bc98 67c0 16f3 043e 199c d53c
00000370: 9238 01bf 8c10 b53c ba57 173c 6832 503c
00000380: 726b e5be 32a5 3bbe a94b 5ebf 755e 6dbf
00000390: b6df 0cbe 4da7 b240 3c19 4c40 119e 033f
000003a0: 7377 81bf 0c62 15c0 f4d0 1f3e 49ec ebbc
000003b0: 5704 0e3f fce9 c1be c95e 10bd ef81 af3c
000003c0: e369 093f 1538 d33a cbf2 ad3c 02c3 99bd
000003d0: 0789 d43f 910c d140 c248 ff3e 720f 063d
000003e0: d93c b53b 9810 54bf 1ef5 34bd f985 ce3e
000003f0: 5aef 83be 050f 5ac0 4ebe 2a3d d89d 663f

fc3.bias f4 [2]
-0.12048885 0.117699616
00000000: dcc2 f6bd 7f0c f13d
