src/continuous/td3_critic2.pth (torch, 278128 bytes, 5 tensors)

fc1.weight f4 [256, 10]
000000 63 7c b6 3e cf f4 0c 3d d7 55 97 bf e6 18 2a 3d
       0.35641775 0.034413155 -1.1823071 0.04152765
000010 d6 cb 98 3e 78 ea 65 be 5b bf bf 3e 80 bc 4f 3e
       0.29843014 -0.22452724 0.3745068 0.20286751
000020 7e 5f 63 3c 14 3b db bb e0 bc aa 3e 4e 68 16 be
       0.013877748 -0.0066903923 0.33347225 -0.14688227
000030 b7 b2 91 3e 4a fa 60 be 00 42 1a 3f 75 e7 70 3e
       0.2845666 -0.21970478 0.6025696 0.23525794
000040 16 6e 80 bd 26 3f fb 3e ea bc fe bb e1 fe a9 bc
       -0.06270997 0.49071616 -0.007773985 -0.020751419
000050 77 06 5c be 4d 59 7c bd 19 20 4a bf 36 48 98 be
       -0.21486841 -0.0616086 -0.7895523 -0.29742593
000060 a2 16 ab 3e a2 3a 2e be 96 4e e3 be 1c a1 d5 bf
       0.33415705 -0.17014554 -0.44395894 -1.6689792
000070 85 c1 f8 ba 62 02 6f 3b 06 02 24 3f 89 4e 98 be
       -0.0018978572 0.0036469926 0.6406559 -0.29747418
000080 72 5e 79 3f e3 2d a6 bd 0a 17 5e bf d5 1a 97 bd
       0.9740974 -0.08114221 -0.86753905 -0.07378165
000090 dc 9e 9c 3d 32 a3 9c 3d af 24 e3 bb 58 50 0a 3c
       0.076474875 0.076483145 -0.0069318633 0.008442007
0000a0 58 b8 1c be 10 6f 5b 3e 6a 98 3b bf 2b 63 06 3e
       -0.15304697 0.21429086 -0.7327944 0.13123767
0000b0 90 06 73 bf 8a 06 4e 3d 15 3c 28 be 25 4b 6d 3f
       -0.9493189 0.050299205 -0.1642917 0.92692786
0000c0 67 ab ea bd 3b 34 83 bd cd 52 fe be ac 2e 9e 3e
       -0.11458474 -0.064064465 -0.49672547 0.30894983
0000d0 ba b8 7b bf 43 12 c3 be 3f e5 e7 3e bf c5 c3 3e
       -0.98328745 -0.3809987 0.45292088 0.38236806
0000e0 a9 2f 33 bb 5a 32 07 3e 52 2f 66 bc 83 40 a6 3c
       -0.002734164 0.13202801 -0.014049368 0.020294433
0000f0 82 56 83 be 6a ed 19 3f 63 4a 17 bf f3 79 1f bf
       -0.25651938 0.6012789 -0.5909788 -0.62295455
000100 6d 0e 19 bd 56 a0 1c 3e 17 03 00 bf 0c e2 b6 3e
       -0.037367273 0.15295538 -0.50004715 0.35719335
000110 88 bb 7b bc e9 61 7a ba 96 ea e4 3e 65 1a 99 bf
       -0.015364535 -0.0009551333 0.44710225 -1.196118
000120 4f fd 4f bf 80 2c 3a bf 60 7f e0 3e a5 ac ad 3e
       -0.81245893 -0.7272415 0.4384718 0.3392078
000130 26 e1 2f 3e cd e1 96 be 0c 1a 25 bc 39 ea a9 bc
       0.17175731 -0.29469147 -0.010077011 -0.020741569
000140 f0 60 5a bd 59 06 62 3d 61 f1 09 be cf aa 9e 3d
       -0.053315103 0.055181835 -0.13470985 0.07747423
000150 52 f3 12 3e f7 f5 26 3e 84 18 2e 3e 4b 35 2f be
       0.14350632 0.16304766 0.1700154 -0.17110173
000160 bd c3 13 3d ef 37 65 3f 50 0b 0b 3e d8 bf d4 3e
       0.036075342 0.8953847 0.13578534 0.41552615
000170 6b 73 1d 3f 82 08 8d be da 4c 1e 3f a5 4a e9 be
       0.6150424 -0.27545553 0.61836016 -0.45564762
000180 74 c8 3a be ee 6f 01 3f 51 f1 7c be 29 c8 74 3e
       -0.1824053 0.50561416 -0.2470143 0.2390448
000190 c1 97 38 be a7 6d 27 3f 8e ed 39 bc 4d 00 0a bd
       -0.1802664 0.6540169 -0.011348141 -0.033691693
0001a0 4f 02 50 be 43 3d fd 3e e1 0a 00 be f7 00 bf 3d
       -0.2031338 0.494608 -0.1250415 0.09326356
0001b0 37 94 4a be 86 2a 5f bd ae 69 18 be 24 63 cf 3b
       -0.19783102 -0.054483913 -0.14884064 0.006328957
0001c0 b0 30 1b bf ef 88 23 3f 2d b7 40 bb ac e7 de bc
       -0.60621166 0.6388082 -0.0029406056 -0.02721008
0001d0 5d 7b 83 3e 4a f1 f8 3e 9c f8 18 ba 99 06 d9 bb
       0.25680056 0.4862159 -0.00058353855 -0.006623101
0001e0 73 81 cc 3d a3 ac a3 be 08 bc 84 3d 16 36 23 3f
       0.09985628 -0.3196765 0.064811766 0.63754404
0001f0 33 89 10 3e 45 df fe 3e a7 d4 91 3e 25 ac 11 be
       0.14114837 0.49779716 0.28482553 -0.14225824
000200 db 25 03 3d 35 7c 78 ba 28 52 00 3e f4 ac 45 bc
       0.032018524 -0.00094789575 0.1253134 -0.012065161
000210 2b 8d 4a be 8f df 47 40 18 50 54 3e 2c 2a 00 bf
       -0.19780414 3.12302 0.20733678 -0.5006435
000220 a9 33 c6 be a9 fa ee bd e3 22 67 3c 3c 67 b7 3c
       -0.3871129 -0.116689034 0.014107439 0.022388093
000230 d9 35 ab 3f 6f e9 a2 3e 97 50 cf 3e a1 90 d7 be
       1.3375808 0.3181872 0.40491173 -0.4210253
000240 b3 ef 1f 3e e0 5c 67 3d d4 43 69 bf 89 5a ee bf
       0.15618782 0.056485057 -0.9111912 -1.8621379
000250 f5 6a 9b bd 71 af 16 3d 6f 90 f1 be 46 d1 6e bc
       -0.0758876 0.036788408 -0.47180507 -0.014576262
000260 dc a2 04 3f 99 7e 96 be fe e6 eb bd af 8f 0d 3e
       0.51811004 -0.2939346 -0.11518668 0.13824342
000270 2f c4 fa 3d 75 06 21 3f e7 39 f5 bc a5 c6 f6 bc
       0.1224445 0.6290048 -0.029934837 -0.030124018
000280 86 21 3d bf 02 31 ec 3c 6c d7 cc 3e 5f bf 4f 3f
       -0.7387928 0.028831962 0.40008104 0.81151384
000290 2b 2f 5a be 24 1f 82 3e e2 97 04 bc 15 7b d6 3e
       -0.21307056 0.25414383 -0.008092852 0.4189078
0002a0 42 d7 cc 3d bd 05 7a 3d 42 37 3f bd ff 95 93 3e
       0.10001995 0.06104063 -0.046683557 0.28825375
0002b0 38 6e b3 3e fd 38 e9 bc 51 ad 21 3e ee 54 b1 3e
       0.35045028 -0.028469557 0.15788771 0.3463511
0002c0 be ba 20 3e 8e 14 b0 be 0a 0a 15 3e 5c 22 e6 bc
       0.15696236 -0.34390682 0.14554611 -0.028092556
0002d0 8c 0c 69 3c b8 f5 8e 3f eb 8b 43 3d ad fd 23 3f
       0.014224183 1.1168737 0.047740858 0.64058954
0002e0 97 cb 39 bc 54 cd 0a be e0 25 4f bd d5 f8 9b be
       -0.0113400435 -0.13554889 -0.05057323 -0.3046328
0002f0 a3 30 52 bd 53 8c d0 3e 62 8b fe be 31 e7 b5 3d
       -0.051315915 0.4073206 -0.49715716 0.08881987
000300 da 43 89 3e 13 84 0c be ac 57 33 bf 60 1f 94 bd
       0.2680958 -0.13722257 -0.7005565 -0.07232547
000310 ed 66 68 3e 78 e9 c2 3b 3d 1d e3 bc c1 f3 99 3c
       0.22695513 0.005948242 -0.027723903 0.018792989
000320 6b 5f ad 3e f5 8f 4a bf 9e 58 ea 3e cd 74 75 3c
       0.3386186 -0.7912591 0.45770735 0.014981461
000330 f2 65 80 3e 7a 34 a5 3e f8 a7 5f 3e 02 3c 25 bf
       0.25077778 0.322666 0.21841419 -0.6454469
000340 e4 e9 2f bd a2 21 6f bd 38 f3 ca be 6c 7a 47 bf
       -0.042947665 -0.058381684 -0.39638686 -0.77921176
000350 36 42 c8 bd 67 87 a3 bf 61 c1 2f 3f 99 e7 59 bb
       -0.09778254 -1.2775697 0.6865445 -0.0033249615
000360 a6 1a 1e 3e c0 b7 aa bc a4 67 e5 bc 89 4f 27 3b
       0.15439853 -0.020839572 -0.028003521 0.0025529584
000370 aa 72 54 bd 59 40 ff bd b7 a9 df 3e 07 25 94 bb
       -0.051867165 -0.12463445 0.4368417 -0.0045210156
000380 77 e6 c2 3d 5f 9f 87 bd 6f 71 97 3e e9 f4 93 3e
       0.09516614 -0.066221945 0.2957873 0.2889779
000390 97 34 71 3d 13 31 4a 3d b6 8c 3d 3f ca 6f b9 bd
       0.058888044 0.049363207 0.7404283 -0.09054525
0003a0 27 61 36 3e 8d 84 45 bf 74 4d 0d be e5 41 5b 3e
       0.17810498 -0.7715538 -0.13799077 0.21411856
0003b0 d1 c2 8b bf f5 19 3a bf ac ca cd bc dc 1c 86 bc
       -1.0918828 -0.7269586 -0.025121056 -0.016371183
0003c0 18 56 70 3f 85 e1 c4 bd 18 a6 a3 bd f2 19 04 3f
       0.9388137 -0.09613327 -0.07990664 0.5160209
0003d0 3c f5 8b 3e 87 53 06 bf 47 75 d4 3e 1d 04 a6 be
       0.27335536 -0.524712 0.41495726 -0.32425013
0003e0 4a 63 46 3d 4a e9 8e 3c 19 21 64 3f 27 9e 41 3e
       0.048434533 0.017445225 0.89113003 0.18907987
0003f0 cc 51 48 3f 8f 36 05 be ff 58 84 3e ae ae d5 3d
       0.7824981 -0.13009094 0.2584915 0.10433708

fc1.bias f4 [256]
000000 c8 d3 12 bf ee ea 93 3e 97 a2 d1 3d 66 81 6e 3e
       -0.573544 0.28890175 0.1023609 0.23291549
000010 50 0a ba 3e c1 96 90 3e c8 3a e1 bd d6 0b 99 3e
       0.36335993 0.28240016 -0.1099754 0.29891843
000020 c4 2e 8a b9 94 df a1 3d 35 60 34 3f 1e d9 e7 bb
       -0.00026356254 0.07903972 0.704593 -0.007075443
000030 0d d2 a6 be 85 d0 43 3e 47 e5 0e bd ca fe 76 3c
       -0.3258213 0.19122513 -0.034886625 0.015075395
000040 6d 6b de 3e 00 64 36 3e 7d 42 c1 3e 91 18 ee 3e
       0.43441334 0.17811584 0.3774604 0.46503118
000050 38 86 c7 3e 54 31 d5 be da 7f ba 3e ab 5b 50 3e
       0.38969588 -0.41639197 0.36425668 0.20347469
000060 2e 9f f3 bd a0 6c c3 3d ae 1a 79 be 43 e3 ea 3c
       -0.118955955 0.09542203 -0.24326584 0.02867282
000070 42 27 ac be 70 9a 16 be 4e c8 1a 3e 17 13 84 3e
       -0.336237 -0.1470735 0.15115473 0.25795814
000080 1c dc e4 3c d8 54 59 bf 6e bc 4d bf 7a b0 73 3e
       0.027936988 -0.84895086 -0.80365646 0.23797789
000090 fb 20 7c 3d 4d 75 21 bf ed 43 0b 3f 0e ed 76 be
       0.06155489 -0.6306961 0.5440052 -0.24113867
0000a0 1b ca 03 bf 4d dd 49 3f c8 42 10 3f bd 7b aa be
       -0.51480263 0.78853303 0.563519 -0.3329753
0000b0 9d 5f 02 bd d4 ef 62 bd 30 58 22 3e 6e e9 c7 3e
       -0.031829465 -0.0554045 0.15853953 0.3904528
0000c0 49 4f 47 bd ca d5 b4 be ec 8d bc 3e d4 72 ad 3e
       -0.048659597 -0.35319358 0.36827028 0.3387667
0000d0 ba 46 2c 3f 62 82 85 3f 29 55 92 3e f3 54 f6 3e
       0.6729542 1.0430415 0.28580597 0.48111686
0000e0 93 c2 44 3f 8e f0 48 3d ad 0f b7 3d a4 d3 b1 b9
       0.76859397 0.049057536 0.08938537 -0.00033917755
0000f0 71 8a 40 be ac 6c fb be 07 df 45 3d 69 fb 02 3f
       -0.18802811 -0.49106348 0.0483084 0.5116487
000100 6d 27 a4 bc 3a 75 16 bf be 8b de 3b 8c f3 fa 3d
       -0.02003833 -0.58772624 0.006791561 0.12253484
000110 8a 9b 0e 3f 3b 3a 45 3e 1f 0b 0b 3e 26 f9 b8 3e
       0.55706084 0.19260494 0.13578461 0.36127585
000120 55 85 1c 3e ba 2b 1f be c8 d3 cf 3e e6 24 30 3e
       0.15285237 -0.15544024 0.40591264 0.17201576
000130 50 de 0f 3e 66 f6 5e be 8c a4 c0 3e 75 0f b3 3e
       0.14049649 -0.21773681 0.3762554 0.3497273
000140 a5 dc 19 bd 60 a3 4d be f4 ba 05 3e 55 52 cc be
       -0.03756394 -0.20081854 0.13059598 -0.39906564
000150 31 4e 06 be 21 8d 9c 3d e7 0c 16 3d b4 09 27 3f
       -0.13115765 0.07644106 0.0366334 0.6524918
000160 b2 96 dc be 34 34 dc 3e f5 39 07 be af 42 00 3f
       -0.4308372 0.43008578 -0.13205703 0.5010175
000170 83 61 44 3e 21 0d 56 3e 2a 59 da 3e 10 a9 d4 3d
       0.19177823 0.20903446 0.42646152 0.103838086
000180 91 1b cb 3e a7 df 64 be db c4 d7 be 44 96 e2 3e
       0.3966947 -0.22350942 -0.42142376 0.4425527
000190 57 7e 61 be 3f 62 ab 3e aa 00 7e 3f 5a 9d ed 3e
       -0.22020851 0.33473393 0.99219763 0.46409112
0001a0 1f 59 0e bf fd 3d 1b be f0 73 79 bd 3c e1 9f bc
       -0.5560474 -0.15160365 -0.060901582 -0.01951658
0001b0 83 58 9d be 10 dc b3 3c 7d d6 18 3d 07 fe ee 3e
       -0.30731592 0.02195552 0.037313927 0.46678182
0001c0 e0 fb f8 bd d1 0f d8 be 72 50 b0 be 24 7d f4 3e
       -0.12157416 -0.42199567 -0.34436375 0.47751725
0001d0 3a da 26 3e 24 65 07 3f c2 ca d1 3e db 26 28 3f
       0.16294184 0.52888703 0.40975004 0.6568429
0001e0 3c eb da 3e 32 96 4e bf 57 6e 22 3f 01 bc b6 3d
       0.42757595 -0.8069793 0.63449615 0.08922578
0001f0 df e3 8f bf 41 64 87 3f 33 20 82 be 1f b1 14 3d
       -1.1241416 1.057747 -0.2541519 0.03630173
000200 6d 2c 36 3f bb b9 c5 be 4a f5 c3 3e 6c 7c 60 be
       0.7116154 -0.38618264 0.38273078 -0.21922463
000210 9e 2d 2f bd c9 b8 3f 3f de 78 66 bf 2f bc ff 3e
       -0.042768113 0.74891335 -0.9002818 0.4994826
000220 ce 98 2e bd f7 f2 99 be 99 22 16 be ae e7 57 bf
       -0.042626195 -0.3006818 -0.14661635 -0.8433789
000230 3c 9c 56 3e 72 18 23 bf 2b 1b 21 be 05 56 53 3f
       0.20958036 -0.63709176 -0.1573302 0.8255313
000240 76 ee b8 bd 6a f5 9f 3d 44 df e6 3e 06 53 37 3f
       -0.09029858 0.07810481 0.45092213 0.7161106
000250 c5 51 55 bf e5 25 d7 3e b3 ea 7c be 94 0a 52 be
       -0.83327895 0.420211 -0.24698906 -0.20511848
000260 02 ab 83 3f e4 18 5c be 1f 84 96 be a8 97 02 3e
       1.0286562 -0.2149387 -0.29397675 0.12753165
000270 37 a2 4b be 1d 5a 4c be 3a c9 02 3e cd e9 b2 3e
       -0.19886099 -0.1995625 0.12772074 0.34944
000280 97 99 f1 3e 45 77 91 be 40 9c 66 be a1 5a 25 bf
       0.47187492 -0.28411308 -0.22520542 -0.64591414
000290 44 cd d4 bb 5c 14 24 bf 10 9c a2 bd c6 cf f5 bd
       -0.006494196 -0.64093566 -0.07939923 -0.1200252
0002a0 f1 5a 0e 3f 47 ec 42 b9 be 5e f8 3e c2 6d 75 be
       0.55607516 -0.00018589302 0.48509783 -0.2396765
0002b0 9a c7 8f 3d 33 ec 00 bf 14 30 e6 3e 55 ae ba bd
       0.07020493 -0.5036041 0.44958556 -0.091152824
0002c0 bf 27 f1 bc a7 13 10 3e 15 c3 22 3e 62 11 81 bf
       -0.029437898 0.14069997 0.1589473 -1.008343
0002d0 bb ec 1f 3e 74 b1 01 3e 80 1d f4 3c f7 33 42 bf
       0.1561765 0.12665349 0.029799223 -0.7586054
0002e0 eb 80 e3 bd c3 95 ad be 2b 67 c3 3e 51 55 1d 3d
       -0.111085735 -0.33903322 0.38164648 0.038411442
0002f0 76 12 c4 3e 36 ae f4 3e 78 ad 6c bc b2 b7 a3 3e
       0.38295335 0.47789162 -0.014445655 0.31976086
000300 74 8f 24 3f 78 74 e6 3d 17 c3 37 bf 66 a9 c0 be
       0.6428139 0.112526834 -0.7178206 -0.3762924
000310 a4 ea 05 3e 53 55 28 bc 7c 07 13 3f 62 c0 32 bf
       0.1307779 -0.010274249 0.57433295 -0.698248
000320 aa 15 aa 3e 18 0e 08 be 25 cf 44 3f 3a 98 59 be
       0.33219653 -0.13286626 0.7687858 -0.21249476
000330 2b 8e 98 be 6b 0c 00 3f c4 8f 49 3f 11 63 85 bb
       -0.29795966 0.5001895 0.78734994 -0.0040706475
000340 bb 4f a1 3e 4b 7c 2d 3f 30 52 23 3e 1d 2a a6 be
       0.31506142 0.6776778 0.15949321 -0.32454005
000350 b1 4c b5 3e d6 cc 16 3f 5d cf aa be b8 69 0b bf
       0.35410073 0.58906305 -0.3336133 -0.5445819
000360 b4 3e 36 3f d7 d3 27 3f 50 ae d9 bd 26 53 96 be
       0.7118943 0.65557617 -0.106289506 -0.29360312
000370 f4 6f ac bd 40 c0 2c bc e4 8e fd 3e 81 36 92 3e
       -0.08419791 -0.010543883 0.4952308 0.28557208
000380 a1 e0 83 bf 70 25 e4 3e 94 1e 7d 3e f3 75 45 3e
       -1.0302926 0.44559813 0.24718696 0.19283275
000390 74 96 45 bc 36 1c ab bc 35 11 63 3f ef 44 5c be
       -0.012059797 -0.020887475 0.8869813 -0.21510671
0003a0 20 d0 9a 3e e5 cc 85 3e 1a 9f a0 3e ee fe 99 bc
       0.30236912 0.26132885 0.31371385 -0.018798318
0003b0 ab 52 94 3e 76 1b 2d 3d ea b5 8c 3e 47 5f a0 3d
       0.2896932 0.042262517 0.2748254 0.07830673
0003c0 b8 31 f0 be 21 53 e0 3e ed 2e 41 be 7f ac 2a 3f
       -0.46912932 0.43813422 -0.18865557 0.6666946
0003d0 f3 c2 38 3f 16 44 30 bf b4 3f 14 bf 29 9f 8a be
       0.7217247 -0.6885389 -0.57909703 -0.27074555
0003e0 83 4e 3a bf 0e 20 7a bf 59 e2 53 bd 70 06 06 bf
       -0.7277605 -0.9770516 -0.051729534 -0.5235357
0003f0 9a d1 d9 3e f3 16 87 3e ef 9b 52 be 1e fc e0 3e
       0.42542726 0.26384696 -0.20567296 0.4394235

fc2.weight f4 [256, 256]
000000 d5 a5 20 3f 36 35 2f 3e 1d 7d dd be d5 ff 2e 3e
       0.6275304 0.17110142 -0.43259516 0.1708978
000010 25 5e 56 3e 91 26 9f 3d 81 21 79 bd bf 4f 21 3f
       0.20934351 0.07771028 -0.060822967 0.6301231
000020 46 ad 06 bf fd 5e 9c bd c0 73 08 bc 0e 9a 51 be
       -0.52608144 -0.07635305 -0.008328378 -0.20468923
000030 d7 3c 32 c0 f9 b9 08 bf f9 5f c0 bf 28 ee 84 3d
       -2.7849634 -0.5340877 -1.5029289 0.06490737
000040 fc 23 02 3e 69 af 2b bf e2 a4 ae bc 00 33 f2 3d
       0.1270904 -0.6706453 -0.021318857 0.11826134
000050 8a 0c 55 bf f1 b5 d3 3e 50 55 51 3e 20 89 36 be
       -0.8322226 0.41349748 0.204427 -0.17825747
000060 c9 17 c4 bd cf c7 92 be 1e 18 51 bf 57 cc 7a 3d
       -0.09574849 -0.28668067 -0.81677425 0.06123003
000070 d8 4a 00 3f b4 37 32 3e eb f3 74 3d dc 2a 98 3e
       0.501142 0.17404062 0.05980293 0.297202
000080 30 d3 85 3e a9 8f 46 3e b7 05 73 3f ea 90 e5 bc
       0.26137686 0.1939074 0.94930595 -0.028023202
000090 48 60 65 3d 11 de c3 3d ad df 3b 3e 19 97 c5 be
       0.056000024 0.0956384 0.18347044 -0.3859184
0000a0 a2 b5 3e bf 2c c1 65 bc f2 4d 4e be c3 44 82 3c
       -0.744959 -0.014023107 -0.20146921 0.015901929
0000b0 55 c6 b4 be 90 5f a8 be 33 74 fb 3d 78 a5 15 3e
       -0.35307565 -0.32885408 0.122780226 0.14613903
0000c0 91 86 f1 be a4 1e a0 be 48 5e a5 3e 7f 7c 97 bd
       -0.4717298 -0.31273377 0.32298493 -0.073967926
0000d0 30 cb 2d be 0b 16 b6 3d 47 a9 45 3e 39 b5 28 3e
       -0.16972041 0.08890923 0.19302855 0.16475381
0000e0 39 ed 19 3e fe 7a 38 3e 25 0c 97 3e 36 56 22 ba
       0.150319 0.18015668 0.29501453 -0.0006192656
0000f0 21 50 44 3f 27 1d a7 be 37 6b 2f 3e 41 9e 3a 3e
       0.76684767 -0.3263943 0.17130743 0.18224432
000100 41 91 d4 3d f3 ce 3e 3d 62 e6 90 3e cd 19 2d 3e
       0.103792675 0.04658408 0.28300768 0.16904373
000110 15 6f 39 be 57 60 30 3c 0f a9 37 be df 13 8d be
       -0.1810878 0.010765157 -0.17935584 -0.27554223
000120 cc 94 ab 3e 52 58 8f be 11 f2 0c be d6 1e b3 bc
       0.3351196 -0.2799707 -0.13764216 -0.02186529
000130 70 03 35 3f 2a ea 58 3d db 0e 9a bd 7d b8 3a 3e
       0.7070837 0.05295769 -0.07522365 0.18234439
000140 b8 6b 56 3d 14 a6 4c be 9f be b8 3e ba d4 2d bf
       0.052348822 -0.19985229 0.36082932 -0.6790272
000150 b5 9e 7c bf 5f f5 49 3c 24 dd 32 3f c8 59 cc 3d
       -0.9867967 0.012326567 0.69868684 0.09978062
000160 7d c1 69 3e c9 97 7e bd 94 e3 47 be e0 d5 d4 3d
       0.22827716 -0.062156472 -0.19520408 0.10392356
000170 4f 84 cf 3d ce 83 df be f7 73 e3 be 87 ee 4e 3a
       0.10132658 -0.43655246 -0.44424412 0.000789382
000180 6f f0 87 3e 0e 83 ad 3e 2e 19 80 bd e4 ac 8b 3e
       0.26550624 0.3388905 -0.06254803 0.27280343
000190 7d 69 62 3e cf df 9f be a4 71 86 be da 59 9e bd
       0.22110553 -0.3122544 -0.26258576 -0.077319816
0001a0 8c 38 84 3e f2 38 10 bf 9f bb 29 be 3b 84 36 3f
       0.25824392 -0.5633689 -0.16575478 0.7129552
0001b0 63 2d 2f be ce 44 f6 3d a3 d9 a9 3e 2f 17 21 bd
       -0.17107157 0.12024842 0.33173856 -0.03932875
0001c0 17 9f 87 3e 5b 44 13 be c0 2b 2a bd da 41 63 3e
       0.26488563 -0.14381544 -0.04154563 0.22193089
0001d0 c0 eb 88 3e 89 da a6 3c 8a b4 ae be cd 84 03 bf
       0.26742363 0.020367878 -0.34122115 -0.5137451
0001e0 2a be 4b 3c fe 7a 3c 3e 79 fa 0f 3d 36 25 fa bd
       0.012435475 0.18406293 0.03515098 -0.12214129
0001f0 fc 50 4a 3f 8b 0a 83 3e b3 41 2b bf e6 39 f8 3d
       0.7902982 0.2559398 -0.66897124 0.12120418
000200 1d 74 1a 3e 54 46 7c 3d cf 6d b2 3c 3a a3 3d be
       0.15083356 0.061590508 0.021780876 -0.18519297
000210 41 df 8a 3e 5e 92 5e 3e 60 49 7c 3e 4c c1 25 3e
       0.27123454 0.21735522 0.24637365 0.16187018
000220 a3 30 95 3e 9b 3b 6f bf 9b aa b8 3e bb 56 0b 3e
       0.2913867 -0.93450326 0.36067662 0.13607304
000230 ac fb 9a 3e 36 0f 16 bf fc 50 4b bf 66 99 bc bd
       0.30270135 -0.5861696 -0.7942045 -0.09208946
000240 36 13 35 bd c0 51 94 3e d1 66 f2 bd 59 46 bb 3d
       -0.044207774 0.2896862 -0.11836017 0.09144277
000250 ab 08 41 3e fa ff d1 3d 2a ea aa bd 66 cb d7 3c
       0.18850963 0.10253902 -0.083454445 0.026342105
000260 8d 3e d0 bc 25 88 13 bf 5f b5 d2 be 41 5a 0c 3e
       -0.025420452 -0.57629615 -0.41154 0.13706304
000270 06 57 cf be 29 d9 2f be fa 8e ee 3d 20 fb 24 3e
       -0.4049608 -0.17172684 0.11648364 0.16111422
000280 be 4b 9d 39 27 7e 98 3e 21 6a 34 be bd 03 99 be
       0.00030001806 0.29783747 -0.1761861 -0.29885665
000290 42 b5 b2 3c ff 4d f9 3e 01 ed 01 3e 34 79 8e be
       0.021814946 0.4869232 0.12688066 -0.27826846
0002a0 e8 08 7e be 87 1d 89 be 46 35 0f 3e 07 d7 92 be
       -0.24808085 -0.2678034 0.13985166 -0.28679678
0002b0 94 2b 06 bf 52 2d cf be 47 ed 16 be 3f fd 06 bd
       -0.52410245 -0.40464264 -0.14738952 -0.032956358
0002c0 27 a0 75 3f 21 96 ff bd 0d ef 27 3c eb 86 09 3d
       0.959475 -0.12479807 0.010249865 0.033575933
0002d0 b8 f7 12 3e 99 72 8d 3e fb a8 8b 3c dd 6f 93 3e
       0.1435231 0.27626494 0.01704835 0.28796282
0002e0 46 4d 58 3e 85 84 30 3e 4c 17 74 3d 2a 3e 44 be
       0.21123227 0.17238052 0.05959253 -0.19164339
0002f0 ed 82 c2 bd 8b d5 6b bd c0 b6 3f bd c1 06 3a 3e
       -0.09497628 -0.057576697 -0.046805143 0.18166639
000300 f1 2f dc bb 35 65 4c 3d 26 57 85 be 80 03 42 3e
       -0.0067195822 0.049901206 -0.2604305 0.18946648
000310 2d b0 70 3e 32 78 b9 be a8 75 55 be 7d 43 94 bf
       0.23504706 -0.36224514 -0.20845664 -1.1583096
000320 db 6a c3 3d 57 9f 2a 3e fd af ef bc 94 1e fc 3e
       0.095418654 0.16662346 -0.029258722 0.4924208
000330 07 ac 64 be de b1 c9 3d 27 78 b0 3d cb 74 18 bf
       -0.22331248 0.098483786 0.08616667 -0.5955321
000340 59 22 e0 3d 98 66 bc 3d e5 ef 47 be d0 89 93 3d
       0.10944051 0.09199256 -0.19525106 0.0720402
000350 35 9a 5e 3d 7a c4 40 bd 7e a6 06 c0 21 b1 74 3f
       0.054346282 -0.047062375 -2.1039119 0.9558278
000360 2a 78 85 3d 1b 4b 79 be ea b3 97 3d 75 78 4e 3e
       0.0651706 -0.24345057 0.07407363 0.20163138
000370 c0 12 3e 3d 32 c4 30 3e 90 53 87 be 38 b1 77 3e
       0.0464046 0.17262343 -0.2643094 0.24188697
000380 2e 5c dc bf 82 82 96 3e 22 3c 98 bf 6b a2 1d 3e
       -1.7215631 0.29396445 -1.1893351 0.15393989
000390 f7 d7 22 bf c2 d8 d5 bd 24 bc 39 bd 5f dc 2f be
       -0.63610786 -0.10441734 -0.04534544 -0.17173909
0003a0 d3 13 d6 3e 85 30 d0 3c b6 73 83 3d 54 8f 56 3d
       0.41812 0.02541376 0.064185545 0.052382782
0003b0 24 51 d7 3d a3 13 9c be b5 3d a7 bc 75 76 bc be
       0.10513523 -0.30483732 -0.020415166 -0.36809126
0003c0 16 a4 bb 3e b1 93 08 3e d4 39 0a bf 2d 5a 3a bc
       0.36648625 0.1333759 -0.5399449 -0.011374039
0003d0 14 5d a5 3d 3b a9 94 be 60 04 6d 3e 49 2a 8d bd
       0.08074394 -0.29035363 0.231462 -0.06892831
0003e0 15 98 9b 3e 19 79 25 3e 34 db bb 3d 41 12 49 3e
       0.30389467 0.16159476 0.09172669 0.1963587
0003f0 c3 df 62 3e 62 c8 20 bf ab 49 99 3d 3e 5b 8e bd
       0.22155671 -0.6280576 0.07484754 -0.06950997

fc2.bias f4 [256]
000000 a0 b4 6f 3c ea e7 8b 3e df ca 23 3e 5c d6 21 3e
       0.014630467 0.27325374 0.15995358 0.15804428
000010 51 7c ec 3d fc 5e 19 3e fd db 5e be 0f 8b 2d 3e
       0.11547149 0.1497764 -0.21763606 0.16947578
000020 2a 0e 10 3e b0 23 32 3e 98 2b 04 3d b7 10 00 3e
       0.14067903 0.17396426 0.032268137 0.12506376
000030 66 f7 db 3d 50 b6 01 3e 1c 1a b0 bc 5f 34 22 3e
       0.10740547 0.12667203 -0.021496825 0.1584029
000040 3c b3 62 b9 ec 80 1d 3e e2 15 a1 3e 5b bc fa 3d
       -0.0002161981 0.15381211 0.31462008 0.12242957
000050 e8 b0 bf 3d 52 9e c5 bc 47 b9 f4 3d f1 38 77 bd
       0.09359914 -0.024123345 0.11949401 -0.060357038
000060 8f 2c 5f be a4 7c fa 3d d2 73 8b bd 68 41 29 3e
       -0.21794342 0.122308046 -0.068092 0.16528857
000070 5a dd 42 bd 64 91 88 3c 09 7b de 3d 13 ad 34 3e
       -0.04757438 0.01667089 0.10863311 0.17644148
000080 09 3f 97 3d 72 12 9b 3d 2c d1 c9 3d de 9f 6c 3d
       0.0738507 0.075718775 0.098543495 0.05776965
000090 e1 6b 5e 3e 1c e4 1c 3e 20 00 aa 3d 0a 41 e1 3d
       0.2172084 0.15321392 0.08300805 0.10998733
0000a0 dc bd 7d be ab b7 34 3e 87 a2 c0 bb df 4a 61 3e
       -0.24779457 0.17648189 -0.00587875 0.22001217
0000b0 a7 03 f8 3c e9 ba 8e 3d 89 f8 4d bd f2 98 04 3e
       0.03027518 0.06969244 -0.05028585 0.12948969
0000c0 f8 08 0a 3e f3 5f 55 bd 62 4f 99 3d 02 67 10 3e
       0.13479984 -0.052093457 0.07485844 0.14101794
0000d0 43 2b 86 bd 0c 57 fa 3d d0 19 a8 3d 1e 5c 33 bd
       -0.0655122 0.12223634 0.08208048 -0.04378902
0000e0 14 db eb 3d 49 c3 1d 3e 14 63 79 bd bf eb ec bb
       0.11516395 0.15406527 -0.060885504 -0.0072302516
0000f0 a8 18 c5 bc 80 a8 46 3e c7 3a fd bc 17 23 2d 3e
       -0.024059609 0.19400215 -0.030911816 0.16907917
000100 42 38 87 bd de b7 fd 3c 56 10 cc 3d d0 c6 c8 3d
       -0.06602527 0.030971464 0.09964053 0.098035455
000110 f0 dd 1f 3e 59 bd ee 3d 4c ef 0c 3e 8d 6c de 3d
       0.15612006 0.11657209 0.1376316 0.10860548
000120 96 85 ca 3d e1 78 2c bc 21 3d 45 be 63 10 92 3d
       0.09888761 -0.010526867 -0.192616 0.07132032
000130 7e 67 83 3c ef 2c 22 3e bc 35 28 bd 8b bc 9b 3d
       0.01604056 0.15837453 -0.04106687 0.07604321
000140 0b 50 49 bd 3a 0d 85 3b 20 66 96 3d c4 3a e9 3b
       -0.0491486 0.0040604146 0.073436975 0.007117601
000150 e0 e2 19 3d f9 ff a1 3d 63 c0 44 bc 83 1f 19 3e
       0.03756988 0.07910151 -0.012008759 0.14953427
000160 b2 6a 8f 3c a9 fe bf 3d df 49 d6 3d 88 eb 04 bd
       0.017506931 0.093747444 0.104633085 -0.032451183
000170 20 84 bd 3d c0 8b fa 3b 07 bc 1b 3e 29 6a 1b 3e
       0.092537165 0.007646054 0.15208445 0.15177216
000180 c9 0a b3 3d 8b 9f 8b bd 45 a8 1d 3e 50 6d ae 3e
       0.087422915 -0.0681754 0.15396221 0.34067774
000190 e4 c4 fb 3d d3 99 da 3c d2 c9 91 3e 58 e7 8f bd
       0.12293413 0.026684677 0.2847429 -0.07026547
0001a0 97 d2 14 3e 78 92 fb bc 89 25 50 3d 6d ec 03 bd
       0.14533459 -0.03070949 0.050817046 -0.032207895
0001b0 8b 32 76 3e da 88 23 bc c7 aa 9c 3e 35 fa 0a 3e
       0.24042718 -0.009981358 0.30599043 0.13572009
0001c0 88 50 24 3e 12 b9 9c 3d 19 24 cc 3d 04 24 81 3e
       0.16046345 0.07652487 0.099678226 0.2522279
0001d0 ab 61 2c 3e e4 1c 33 bd 81 98 6b 3d 97 a6 32 3e
       0.16834132 -0.043728724 0.057518486 0.17446361
0001e0 5d ca 0f bc 9f a3 49 be bf 98 0d 3e 5b 46 2c 3e
       -0.0087762745 -0.19691323 0.138278 0.16823713
0001f0 38 c1 29 3e b0 7d d1 3c 0f 1e 23 3e 25 d5 ea 3d
       0.16577613 0.025572628 0.15929435 0.11466435
000200 4a be 87 bd ec a8 b3 be 80 86 09 3e 97 f4 d7 bd
       -0.06628092 -0.35089815 0.13430214 -0.10544699
000210 ae 3a 30 bc 0b fb 28 3e 43 ba dc 3d 0f e5 29 3e
       -0.010756178 0.16502015 0.10777714 0.16591285
000220 32 b1 ec bd 5e 51 03 3e a3 79 c7 3d e7 89 90 bd
       -0.11557235 0.12824008 0.09739997 -0.07057553
000230 b3 c4 d3 3d 6d 42 27 bc 2e 40 bb 3e 0b d6 3a 3d
       0.10340252 -0.010208708 0.36572403 0.045614284
000240 f8 a1 87 bd ef 60 3d bd 53 5b 22 3e aa ed b7 3d
       -0.0662269 -0.04623502 0.1585515 0.08980878
000250 c0 38 54 3b e6 51 3c 3e fb bb 63 3c ff de 5b 3e
       0.0032382458 0.18390617 0.0138997985 0.21471785
000260 33 d7 b3 3d 65 44 58 bd fa 3c 57 3e 35 7f 77 bd
       0.0878128 -0.0527996 0.21019354 -0.06042405
000270 5f 51 6a bd c4 bd a3 3c 13 e6 16 3e e8 1a 27 3e
       -0.057206508 0.019987948 0.14736204 0.16318858
000280 87 ad 17 bd 04 aa 4e 3e f6 31 af 3e f5 4c 06 3e
       -0.037030723 0.20182043 0.34217805 0.13115294
000290 8e b4 cb bb 5a 00 2c 3e 9c e1 fb 3d 53 32 c2 3d
       -0.006216592 0.16797009 0.12298891 0.09482255
0002a0 e9 c1 aa 3c 94 69 f8 bd e2 70 9b 3c 14 88 9b 3c
       0.020844417 -0.121295124 0.018974725 0.018985786
0002b0 1e 11 de 3d 74 bc 67 3d a8 3a d6 bc b1 e6 ba 3e
       0.108431086 0.056576207 -0.026151016 0.3650413
0002c0 b7 02 8f bc 01 7c 03 3e e2 00 41 3e 06 4a ae 3d
       -0.01745735 0.12840272 0.18847993 0.085102126
0002d0 32 0b ba 3d 75 00 ff be f0 d5 e7 3d 98 d6 58 3d
       0.090841666 -0.49805036 0.11320102 0.052939028
0002e0 75 05 1a 3e 06 e9 7f 3d cb be f8 3d 4c 28 57 3d
       0.15041144 0.062478088 0.12145766 0.052528664
0002f0 70 42 ed 3d 30 2d ee 3e d7 86 57 3e a6 99 62 3d
       0.115849376 0.4651885 0.21047531 0.05532231
000300 96 59 17 3d 37 cc 14 3e 9d 38 0b 3e 3d 52 01 3c
       0.03695067 0.14531027 0.13595815 0.007893142
000310 8a 38 b3 3e 5b 76 65 3e 94 03 e6 3c 8f 92 2c 3e
       0.35004073 0.2240843 0.028077878 0.16852783
000320 3e 62 b6 3c 2e e9 9a 3d 74 d8 e6 3d 3f c1 07 3e
       0.022263642 0.07564007 0.11271754 0.13257311
000330 d1 d8 01 3e 58 6a 02 3f e9 52 05 3e 74 24 cb 3d
       0.12680365 0.5094352 0.13019909 0.09919062
000340 8b ff 4b bc 79 34 a7 3d 95 95 46 bf f2 e7 96 3e
       -0.012451063 0.08164305 -0.77571994 0.29473835
000350 2f e0 1f 3e 61 80 81 3d 3c a3 54 3d 36 a8 9f bc
       0.15612863 0.063233145 0.051913485 -0.019489389
000360 4b 51 8c 3d 64 9f 10 bd 6a fe 56 bc 22 65 21 3c
       0.06851443 -0.035308257 -0.0131221805 0.009850772
000370 cd 6f 13 3e aa 1c c9 bc ca 0c 4a 3d f8 f9 9e bc
       0.14398117 -0.0245498 0.049328603 -0.019406304
000380 6a 5a 16 3e 02 e6 e2 bb d9 78 da 3e 8d ce d3 bc
       0.14682928 -0.0069243917 0.42670324 -0.025855327
000390 d0 75 b1 3d b2 0c 18 3e f0 62 3a 3c 6c d1 d6 3d
       0.08665049 0.14848593 0.011376128 0.10489163
0003a0 4a f9 c7 3a 92 59 2f 3b 3a 09 bf 3d 29 99 8f 3e
       0.0015256789 0.002675627 0.09327932 0.2804654
0003b0 a8 2f 24 bd 75 fa 2f 3d ca 76 14 3e b7 f7 2e bd
       -0.04008451 0.042963464 0.1449844 -0.042716708
0003c0 79 c0 5e bf 18 79 23 3e 52 6b 23 3e 6a 8c 62 3e
       -0.8701244 0.15964162 0.15958908 0.22123876
0003d0 5a 8a dd 3d 1e 39 fb be 3b ea a3 3d 2a 4e da 3d
       0.10817404 -0.49067014 0.0800366 0.1065944
0003e0 4b 6c e9 3d 47 74 2d 3e c0 e5 76 3e b7 c1 0d 3e
       0.11397608 0.16938888 0.2411108 0.13843428
0003f0 1d 31 0f be 93 70 e8 3d 3c e3 25 3e ad 0a da 3d
       -0.13983579 0.11349597 0.16199964 0.106465675

fc3.weight f4 [1, 256]
000000 60 40 43 bf 0d 76 96 3f 02 dd 9c be 56 38 91 be
       -0.76270103 1.1754776 -0.30637366 -0.28363293
000010 b7 e3 a1 be 50 1d 93 be 40 99 2b 40 75 58 95 be
       -0.31619045 -0.287333 2.6812286 -0.2916905
000020 de 90 92 be d3 ab a1 be 2e d7 3c bf 22 39 94 be
       -0.2862615 -0.31576404 -0.7376584 -0.2894984
000030 9a fa 87 be a8 12 79 be a9 7e ef 3b e3 27 9d be
       -0.2655838 -0.24323523 0.0073088002 -0.30694494
000040 99 e5 d8 bb 00 dc 91 be 0e e0 9e 3f 02 d6 a0 be
       -0.006619167 -0.2848816 1.2412126 -0.31413275
000050 a4 90 8b be 44 e6 db 3a 1b 07 9d be de 0f 19 3b
       -0.2725879 0.0016776999 -0.30669484 0.0023355405
000060 a5 5f d3 3f 42 c9 88 be c6 94 fc 3f a7 8c 9d be
       1.6513563 -0.26716048 1.9732902 -0.30771372
000070 fe 27 3d 3d e6 3f d8 3c c6 14 9e be 62 92 94 be
       0.046180718 0.026397657 -0.30875224 -0.2901793
000080 1e 4d 24 bf c2 55 99 be dc f6 a9 be 8d 01 b0 bf
       -0.6418017 -0.2994824 -0.3319615 -1.3750473
000090 de 32 4c 3f 59 2d 88 3f 3a 48 8b be b5 c6 91 be
       0.7976512 1.0638839 -0.27203542 -0.28471914
0000a0 0d 60 14 40 15 44 a0 be 25 41 53 bf b4 e2 0f 40
       2.3183625 -0.31301942 -0.8252128 2.2482119
0000b0 19 8a 3f bd 2a b3 7f 3f cf 4b e4 3f 67 8e a1 be
       -0.04676256 0.9988276 1.7835635 -0.31553957
0000c0 f7 6c a9 be c2 1d 81 b9 73 e2 3e bf 7b d6 96 be
       -0.33090946 -0.0002462697 -0.74564284 -0.2946051
0000d0 98 70 2a bf ff 62 97 be 22 20 8b be e3 ad 5b bc
       -0.66578054 -0.29567716 -0.27172953 -0.013408157
0000e0 72 ed 0d 40 98 c3 7b be d1 66 cc 3a 31 d5 6b 3b
       2.2176175 -0.24586332 0.0015594607 0.0035985226
0000f0 c0 4b a3 3f eb 58 49 3f 3a e9 81 3c 81 63 95 be
       1.2757492 0.78651303 0.015858281 -0.29177478
000100 94 40 a7 3c 1e bd ef 3b 18 f5 a2 be b2 5c 8d be
       0.020416535 0.0073162457 -0.31827617 -0.27609783
000110 98 47 9a be 9e 38 a6 3f 4d 05 a0 be 64 a8 89 be
       -0.30132747 1.2986028 -0.31254044 -0.26886284
000120 f5 13 83 be 90 f8 07 c0 7c f9 c6 3f f9 de 8f be
       -0.25601164 -2.124546 1.5544887 -0.28099802
000130 8a 19 1f 3d c4 6a 38 bf 77 31 f7 3f 17 b1 a1 be
       0.038842715 -0.7203791 1.931197 -0.3158042
000140 e0 f4 e0 bc b3 0a 1b c0 78 55 8a 3f 7f ab 66 3d
       -0.027460515 -2.422528 1.0807333 0.056315895
000150 68 0e 22 3d 5b 86 9e be 33 46 d7 bc 91 50 ac be
       0.03956452 -0.3096188 -0.02627859 -0.33655217
000160 40 37 18 3c de 96 94 be 43 fd 87 be e3 11 19 bb
       0.009290516 -0.29021353 -0.2656041 -0.0023356609
000170 97 9b 6c 3f 44 7d ab 3f ea 86 9c be 9d 4c 7b be
       0.9242491 1.3397603 -0.3057168 -0.24540944
000180 27 4e a7 be 98 28 21 c0 57 4c 85 be d2 d6 85 3f
       -0.32676813 -2.5181026 -0.26034805 1.0456183
000190 0d 61 12 40 16 c0 fb 3b d4 a3 be 3f a3 c5 ee bc
       2.2871735 0.0076828105 1.4893746 -0.029146975
0001a0 c3 b6 99 3f 76 6c 1b 3c 01 54 98 be 0d ac b2 ba
       1.20089 0.009486308 -0.2975159 -0.0013631597
0001b0 b6 e9 9a 3f 7f fe 42 bc 23 1b 97 bf 12 54 16 bf
       1.2102573 -0.011901497 -1.1805156 -0.5872203
0001c0 d2 c5 93 be d6 06 98 be e2 a6 91 be 91 97 92 3f
       -0.28861862 -0.29692715 -0.28447634 1.1452504
0001d0 a5 55 8c be 4f 4c b7 3f 33 2c f1 be f6 b0 94 be
       -0.27409092 1.4320163 -0.47104034 -0.2904126
0001e0 fb 42 da 3f 8b 75 a4 bf b8 31 a4 be 59 78 a3 be
       1.7051691 -1.2848371 -0.32069182 -0.31927755
0001f0 b8 90 89 be 4c db e0 3c cd c3 9c be d3 ac 05 40
       -0.26868224 0.027448319 -0.30618134 2.0886734
000200 1b 73 62 bb 13 49 fb 3f 07 6a 8b be c6 95 dc bf
       -0.0034553471 1.9631675 -0.2722933 -1.7233207
000210 ea 31 f6 3a 68 40 8b be 99 fe 9b be 82 a9 b5 3f
       0.0018783186 -0.27197576 -0.3046768 1.4192355
000220 e4 ef ab 3f db 5f 8e be bf 1c 80 be 25 38 00 3c
       1.3432584 -0.27807507 -0.25021932 0.007825886
000230 3c 3b 92 be 19 54 3c bb c7 0b e4 3f 01 db 42 3b
       -0.28560817 -0.002873665 1.7816094 0.0029732587
000240 da 69 67 3c 34 96 3c bd 0c 18 a6 be c0 da 92 be
       0.014124358 -0.046041682 -0.3244022 -0.28682518
000250 fd 1f c6 3f b5 c2 30 40 36 46 17 3d 9f ac 9c 3f
       1.5478512 2.761884 0.036932193 1.224018
000260 53 64 99 be 6c bc 1f 3d 17 55 b7 3f 80 74 92 3f
       -0.29959354 0.038998052 1.4322842 1.1441803
000270 94 54 4f 3d 99 ba c3 bb 7b 76 8f 3f 1d 5e 96 be
       0.05061777 -0.005973172 1.1208032 -0.29368678
000280 e6 cb fd bb 44 d8 3c 3f 78 af b2 3f 95 ff b9 c0
       -0.007745254 0.73767495 1.3959799 -5.812449
000290 24 25 ca 3c af a8 7b be 52 78 2c bf 80 4e 61 3f
       0.024675913 -0.24576066 -0.67371094 0.88010406
0002a0 f1 f6 6c 3f d3 be b6 3f 5d 7c 0e 40 d5 1e 07 40
       0.925643 1.4276985 2.2263405 2.1112568
0002b0 3d 82 8a be b8 e7 e7 3f db 0c 0e 3d 7c 2f ab 3f
       -0.2705249 1.811759 0.03468023 1.3373866
0002c0 e3 41 89 3b 2a e4 8a be 6b 0d 58 40 6b 16 9a be
       0.0041887625 -0.271272 3.375819 -0.3009523
0002d0 d6 f6 8d be ff 71 d5 3f fc 8a 94 be e1 bf 8b be
       -0.27727383 1.6675414 -0.29012287 -0.2729483
0002e0 90 13 91 be 35 43 94 be 29 11 85 be 9c 17 a9 3f
       -0.28335238 -0.28957525 -0.25989655 1.321033
0002f0 bd 04 8c be 23 89 d8 3f 4d 9b 2b bf ec ab 93 be
       -0.27347365 1.6916851 -0.67033845 -0.28842103
000300 a7 75 31 40 02 e5 90 be 27 be 07 bf 60 e2 32 3a
       2.772806 -0.2829972 -0.53024524 0.00068238936
000310 a6 e4 86 3f 3a 5f f1 3f 87 11 2b bf c9 3e 94 be
       1.0538528 1.8857186 -0.6682362 -0.2895415
000320 9c 33 a8 3f 58 ba 9c be 93 17 3b 40 62 72 96 be
       1.314075 -0.3061092 2.9233139 -0.29384142
000330 03 96 9e be f8 46 db 3f bf 85 47 40 cc f6 94 be
       -0.30973825 1.7131033 3.1175382 -0.2909454
000340 8c b7 ff 3c 46 d9 ae be 45 03 0f 40 b8 9a 61 3f
       0.031215452 -0.3415014 2.2345746 0.8812671
000350 7e 96 8f be 39 40 98 be a4 ac 8b be 48 bb a2 3f
       -0.28044504 -0.29736498 -0.27280152 1.2713404
000360 21 7c 9b be 77 24 27 3d d4 32 bf 3f 78 05 ca bc
       -0.3036814 0.04080626 1.4937387 -0.02466081
000370 b2 38 89 be 2e 2c 9c bc 34 e2 c8 bf 4a 92 c6 3c
       -0.26801068 -0.019064035 -1.5694032 0.024239678
000380 a9 44 9e be 37 3c ea 3c a1 26 a1 3f cf f7 5f 3c
       -0.3091176 0.028593166 1.2589914 0.013669922
000390 49 82 8b be 6a 65 89 be 30 e0 fd 3b 22 f7 9b be
       -0.27247837 -0.26835185 0.0077476725 -0.30461985
0003a0 65 2f b9 ba 32 82 c0 3f d2 a3 94 be 45 ec ad 3f
       -0.0014128505 1.5039732 -0.29031235 1.3587729
0003b0 7b 45 9e 3f db fa 0d b7 85 be 93 be 6a b9 ae bc
       1.2364954 -8.462662e-06 -0.28856292 -0.021328647
0003c0 f1 64 02 40 f5 db 9c be ec 3b 93 be d9 2b 9f 3f
       2.037411 -0.30636564 -0.28756654 1.2435256
0003d0 f6 78 92 be 65 4a 05 40 6f 89 a1 be 65 79 93 be
       -0.2860791 2.0826657 -0.31550166 -0.28803554
0003e0 84 78 0b 40 f0 ba 98 be 68 60 c6 3f 11 cb bb 3f
       2.1792307 -0.29830122 1.5498171 1.4671346
0003f0 9a 25 32 c0 8d 47 88 be 08 e4 8c be 95 91 6c 3f
       -2.783545 -0.2661709 -0.27517724 0.9240964
